node {
  name: "data/wav_filename"
  op: "Placeholder"
  attr {
    key: "dtype"
    value {
      type: DT_STRING
    }
  }
  attr {
    key: "shape"
    value {
      shape {
      }
    }
  }
}
node {
  name: "data/ReadFile"
  op: "ReadFile"
  input: "data/wav_filename"
}
node {
  name: "data/DecodeWav"
  op: "DecodeWav"
  input: "data/ReadFile"
  attr {
    key: "desired_channels"
    value {
      i: 1
    }
  }
  attr {
    key: "desired_samples"
    value {
      i: 16000
    }
  }
}
node {
  name: "data/foreground_volume"
  op: "Placeholder"
  attr {
    key: "dtype"
    value {
      type: DT_FLOAT
    }
  }
  attr {
    key: "shape"
    value {
      shape {
      }
    }
  }
}
node {
  name: "data/Placeholder"
  op: "Placeholder"
  attr {
    key: "dtype"
    value {
      type: DT_FLOAT
    }
  }
  attr {
    key: "shape"
    value {
      shape {
      }
    }
  }
}
node {
  name: "data/ExpandDims/dim"
  op: "Const"
  attr {
    key: "dtype"
    value {
      type: DT_INT32
    }
  }
  attr {
    key: "value"
    value {
      tensor {
        dtype: DT_INT32
        tensor_shape {
        }
        int_val: 0
      }
    }
  }
}
node {
  name: "data/ExpandDims"
  op: "ExpandDims"
  input: "data/DecodeWav"
  input: "data/ExpandDims/dim"
  attr {
    key: "T"
    value {
      type: DT_FLOAT
    }
  }
  attr {
    key: "Tdim"
    value {
      type: DT_INT32
    }
  }
}
node {
  name: "data/ExpandDims_1/dim"
  op: "Const"
  attr {
    key: "dtype"
    value {
      type: DT_INT32
    }
  }
  attr {
    key: "value"
    value {
      tensor {
        dtype: DT_INT32
        tensor_shape {
        }
        int_val: 2
      }
    }
  }
}
node {
  name: "data/ExpandDims_1"
  op: "ExpandDims"
  input: "data/ExpandDims"
  input: "data/ExpandDims_1/dim"
  attr {
    key: "T"
    value {
      type: DT_FLOAT
    }
  }
  attr {
    key: "Tdim"
    value {
      type: DT_INT32
    }
  }
}
node {
  name: "data/Shape"
  op: "Const"
  attr {
    key: "dtype"
    value {
      type: DT_INT32
    }
  }
  attr {
    key: "value"
    value {
      tensor {
        dtype: DT_INT32
        tensor_shape {
          dim {
            size: 2
          }
        }
        tensor_content: "\200>\000\000\001\000\000\000"
      }
    }
  }
}
node {
  name: "data/strided_slice/stack"
  op: "Const"
  attr {
    key: "dtype"
    value {
      type: DT_INT32
    }
  }
  attr {
    key: "value"
    value {
      tensor {
        dtype: DT_INT32
        tensor_shape {
          dim {
            size: 1
          }
        }
        int_val: 0
      }
    }
  }
}
node {
  name: "data/strided_slice/stack_1"
  op: "Const"
  attr {
    key: "dtype"
    value {
      type: DT_INT32
    }
  }
  attr {
    key: "value"
    value {
      tensor {
        dtype: DT_INT32
        tensor_shape {
          dim {
            size: 1
          }
        }
        int_val: 1
      }
    }
  }
}
node {
  name: "data/strided_slice/stack_2"
  op: "Const"
  attr {
    key: "dtype"
    value {
      type: DT_INT32
    }
  }
  attr {
    key: "value"
    value {
      tensor {
        dtype: DT_INT32
        tensor_shape {
          dim {
            size: 1
          }
        }
        int_val: 1
      }
    }
  }
}
node {
  name: "data/strided_slice"
  op: "StridedSlice"
  input: "data/Shape"
  input: "data/strided_slice/stack"
  input: "data/strided_slice/stack_1"
  input: "data/strided_slice/stack_2"
  attr {
    key: "Index"
    value {
      type: DT_INT32
    }
  }
  attr {
    key: "T"
    value {
      type: DT_INT32
    }
  }
  attr {
    key: "begin_mask"
    value {
      i: 0
    }
  }
  attr {
    key: "ellipsis_mask"
    value {
      i: 0
    }
  }
  attr {
    key: "end_mask"
    value {
      i: 0
    }
  }
  attr {
    key: "new_axis_mask"
    value {
      i: 0
    }
  }
  attr {
    key: "shrink_axis_mask"
    value {
      i: 1
    }
  }
}
node {
  name: "data/Cast"
  op: "Cast"
  input: "data/strided_slice"
  attr {
    key: "DstT"
    value {
      type: DT_FLOAT
    }
  }
  attr {
    key: "SrcT"
    value {
      type: DT_INT32
    }
  }
  attr {
    key: "Truncate"
    value {
      b: false
    }
  }
}
node {
  name: "data/mul"
  op: "Mul"
  input: "data/Cast"
  input: "data/Placeholder"
  attr {
    key: "T"
    value {
      type: DT_FLOAT
    }
  }
}
node {
  name: "data/Cast_1"
  op: "Cast"
  input: "data/mul"
  attr {
    key: "DstT"
    value {
      type: DT_INT32
    }
  }
  attr {
    key: "SrcT"
    value {
      type: DT_FLOAT
    }
  }
  attr {
    key: "Truncate"
    value {
      b: false
    }
  }
}
node {
  name: "data/resize/size/1"
  op: "Const"
  attr {
    key: "dtype"
    value {
      type: DT_INT32
    }
  }
  attr {
    key: "value"
    value {
      tensor {
        dtype: DT_INT32
        tensor_shape {
        }
        int_val: 1
      }
    }
  }
}
node {
  name: "data/resize/size"
  op: "Pack"
  input: "data/Cast_1"
  input: "data/resize/size/1"
  attr {
    key: "N"
    value {
      i: 2
    }
  }
  attr {
    key: "T"
    value {
      type: DT_INT32
    }
  }
  attr {
    key: "axis"
    value {
      i: 0
    }
  }
}
node {
  name: "data/resize/ResizeBilinear"
  op: "ResizeBilinear"
  input: "data/ExpandDims_1"
  input: "data/resize/size"
  attr {
    key: "T"
    value {
      type: DT_FLOAT
    }
  }
  attr {
    key: "align_corners"
    value {
      b: false
    }
  }
  attr {
    key: "half_pixel_centers"
    value {
      b: false
    }
  }
}
node {
  name: "data/resize_image_with_crop_or_pad/Shape"
  op: "Shape"
  input: "data/resize/ResizeBilinear"
  attr {
    key: "T"
    value {
      type: DT_FLOAT
    }
  }
  attr {
    key: "out_type"
    value {
      type: DT_INT32
    }
  }
}
node {
  name: "data/resize_image_with_crop_or_pad/strided_slice/stack"
  op: "Const"
  attr {
    key: "dtype"
    value {
      type: DT_INT32
    }
  }
  attr {
    key: "value"
    value {
      tensor {
        dtype: DT_INT32
        tensor_shape {
          dim {
            size: 1
          }
        }
        int_val: -3
      }
    }
  }
}
node {
  name: "data/resize_image_with_crop_or_pad/strided_slice/stack_1"
  op: "Const"
  attr {
    key: "dtype"
    value {
      type: DT_INT32
    }
  }
  attr {
    key: "value"
    value {
      tensor {
        dtype: DT_INT32
        tensor_shape {
          dim {
            size: 1
          }
        }
        int_val: 0
      }
    }
  }
}
node {
  name: "data/resize_image_with_crop_or_pad/strided_slice/stack_2"
  op: "Const"
  attr {
    key: "dtype"
    value {
      type: DT_INT32
    }
  }
  attr {
    key: "value"
    value {
      tensor {
        dtype: DT_INT32
        tensor_shape {
          dim {
            size: 1
          }
        }
        int_val: 1
      }
    }
  }
}
node {
  name: "data/resize_image_with_crop_or_pad/strided_slice"
  op: "StridedSlice"
  input: "data/resize_image_with_crop_or_pad/Shape"
  input: "data/resize_image_with_crop_or_pad/strided_slice/stack"
  input: "data/resize_image_with_crop_or_pad/strided_slice/stack_1"
  input: "data/resize_image_with_crop_or_pad/strided_slice/stack_2"
  attr {
    key: "Index"
    value {
      type: DT_INT32
    }
  }
  attr {
    key: "T"
    value {
      type: DT_INT32
    }
  }
  attr {
    key: "begin_mask"
    value {
      i: 0
    }
  }
  attr {
    key: "ellipsis_mask"
    value {
      i: 0
    }
  }
  attr {
    key: "end_mask"
    value {
      i: 1
    }
  }
  attr {
    key: "new_axis_mask"
    value {
      i: 0
    }
  }
  attr {
    key: "shrink_axis_mask"
    value {
      i: 0
    }
  }
}
node {
  name: "data/resize_image_with_crop_or_pad/assert_positive/Const"
  op: "Const"
  attr {
    key: "dtype"
    value {
      type: DT_INT32
    }
  }
  attr {
    key: "value"
    value {
      tensor {
        dtype: DT_INT32
        tensor_shape {
        }
        int_val: 0
      }
    }
  }
}
node {
  name: "data/resize_image_with_crop_or_pad/assert_positive/assert_less/Less"
  op: "Less"
  input: "data/resize_image_with_crop_or_pad/assert_positive/Const"
  input: "data/resize_image_with_crop_or_pad/strided_slice"
  attr {
    key: "T"
    value {
      type: DT_INT32
    }
  }
}
node {
  name: "data/resize_image_with_crop_or_pad/assert_positive/assert_less/Const"
  op: "Const"
  attr {
    key: "dtype"
    value {
      type: DT_INT32
    }
  }
  attr {
    key: "value"
    value {
      tensor {
        dtype: DT_INT32
        tensor_shape {
          dim {
            size: 1
          }
        }
        int_val: 0
      }
    }
  }
}
node {
  name: "data/resize_image_with_crop_or_pad/assert_positive/assert_less/All"
  op: "All"
  input: "data/resize_image_with_crop_or_pad/assert_positive/assert_less/Less"
  input: "data/resize_image_with_crop_or_pad/assert_positive/assert_less/Const"
  attr {
    key: "Tidx"
    value {
      type: DT_INT32
    }
  }
  attr {
    key: "keep_dims"
    value {
      b: false
    }
  }
}
node {
  name: "data/resize_image_with_crop_or_pad/assert_positive/assert_less/Assert/Const"
  op: "Const"
  attr {
    key: "dtype"
    value {
      type: DT_STRING
    }
  }
  attr {
    key: "value"
    value {
      tensor {
        dtype: DT_STRING
        tensor_shape {
        }
        string_val: "inner 3 dims of \'image.shape\' must be > 0."
      }
    }
  }
}
node {
  name: "data/resize_image_with_crop_or_pad/assert_positive/assert_less/Assert/Assert/data_0"
  op: "Const"
  attr {
    key: "dtype"
    value {
      type: DT_STRING
    }
  }
  attr {
    key: "value"
    value {
      tensor {
        dtype: DT_STRING
        tensor_shape {
        }
        string_val: "inner 3 dims of \'image.shape\' must be > 0."
      }
    }
  }
}
node {
  name: "data/resize_image_with_crop_or_pad/assert_positive/assert_less/Assert/Assert"
  op: "Assert"
  input: "data/resize_image_with_crop_or_pad/assert_positive/assert_less/All"
  input: "data/resize_image_with_crop_or_pad/assert_positive/assert_less/Assert/Assert/data_0"
  attr {
    key: "T"
    value {
      list {
        type: DT_STRING
      }
    }
  }
  attr {
    key: "summarize"
    value {
      i: 3
    }
  }
}
node {
  name: "data/resize_image_with_crop_or_pad/Rank"
  op: "Const"
  attr {
    key: "dtype"
    value {
      type: DT_INT32
    }
  }
  attr {
    key: "value"
    value {
      tensor {
        dtype: DT_INT32
        tensor_shape {
        }
        int_val: 4
      }
    }
  }
}
node {
  name: "data/resize_image_with_crop_or_pad/assert_greater_equal/y"
  op: "Const"
  attr {
    key: "dtype"
    value {
      type: DT_INT32
    }
  }
  attr {
    key: "value"
    value {
      tensor {
        dtype: DT_INT32
        tensor_shape {
        }
        int_val: 3
      }
    }
  }
}
node {
  name: "data/resize_image_with_crop_or_pad/assert_greater_equal/GreaterEqual"
  op: "GreaterEqual"
  input: "data/resize_image_with_crop_or_pad/Rank"
  input: "data/resize_image_with_crop_or_pad/assert_greater_equal/y"
  attr {
    key: "T"
    value {
      type: DT_INT32
    }
  }
}
node {
  name: "data/resize_image_with_crop_or_pad/assert_greater_equal/Rank"
  op: "Const"
  attr {
    key: "dtype"
    value {
      type: DT_INT32
    }
  }
  attr {
    key: "value"
    value {
      tensor {
        dtype: DT_INT32
        tensor_shape {
        }
        int_val: 0
      }
    }
  }
}
node {
  name: "data/resize_image_with_crop_or_pad/assert_greater_equal/range/start"
  op: "Const"
  attr {
    key: "dtype"
    value {
      type: DT_INT32
    }
  }
  attr {
    key: "value"
    value {
      tensor {
        dtype: DT_INT32
        tensor_shape {
        }
        int_val: 0
      }
    }
  }
}
node {
  name: "data/resize_image_with_crop_or_pad/assert_greater_equal/range/delta"
  op: "Const"
  attr {
    key: "dtype"
    value {
      type: DT_INT32
    }
  }
  attr {
    key: "value"
    value {
      tensor {
        dtype: DT_INT32
        tensor_shape {
        }
        int_val: 1
      }
    }
  }
}
node {
  name: "data/resize_image_with_crop_or_pad/assert_greater_equal/range"
  op: "Range"
  input: "data/resize_image_with_crop_or_pad/assert_greater_equal/range/start"
  input: "data/resize_image_with_crop_or_pad/assert_greater_equal/Rank"
  input: "data/resize_image_with_crop_or_pad/assert_greater_equal/range/delta"
  attr {
    key: "Tidx"
    value {
      type: DT_INT32
    }
  }
}
node {
  name: "data/resize_image_with_crop_or_pad/assert_greater_equal/All"
  op: "All"
  input: "data/resize_image_with_crop_or_pad/assert_greater_equal/GreaterEqual"
  input: "data/resize_image_with_crop_or_pad/assert_greater_equal/range"
  attr {
    key: "Tidx"
    value {
      type: DT_INT32
    }
  }
  attr {
    key: "keep_dims"
    value {
      b: false
    }
  }
}
node {
  name: "data/resize_image_with_crop_or_pad/assert_greater_equal/Assert/Const"
  op: "Const"
  attr {
    key: "dtype"
    value {
      type: DT_STRING
    }
  }
  attr {
    key: "value"
    value {
      tensor {
        dtype: DT_STRING
        tensor_shape {
        }
        string_val: "\'image\' must be at least three-dimensional."
      }
    }
  }
}
node {
  name: "data/resize_image_with_crop_or_pad/assert_greater_equal/Assert/Const_1"
  op: "Const"
  attr {
    key: "dtype"
    value {
      type: DT_STRING
    }
  }
  attr {
    key: "value"
    value {
      tensor {
        dtype: DT_STRING
        tensor_shape {
        }
        string_val: "Condition x >= y did not hold element-wise:"
      }
    }
  }
}
node {
  name: "data/resize_image_with_crop_or_pad/assert_greater_equal/Assert/Const_2"
  op: "Const"
  attr {
    key: "dtype"
    value {
      type: DT_STRING
    }
  }
  attr {
    key: "value"
    value {
      tensor {
        dtype: DT_STRING
        tensor_shape {
        }
        string_val: "x (data/resize_image_with_crop_or_pad/Rank:0) = "
      }
    }
  }
}
node {
  name: "data/resize_image_with_crop_or_pad/assert_greater_equal/Assert/Const_3"
  op: "Const"
  attr {
    key: "dtype"
    value {
      type: DT_STRING
    }
  }
  attr {
    key: "value"
    value {
      tensor {
        dtype: DT_STRING
        tensor_shape {
        }
        string_val: "y (data/resize_image_with_crop_or_pad/assert_greater_equal/y:0) = "
      }
    }
  }
}
node {
  name: "data/resize_image_with_crop_or_pad/assert_greater_equal/Assert/Assert/data_0"
  op: "Const"
  attr {
    key: "dtype"
    value {
      type: DT_STRING
    }
  }
  attr {
    key: "value"
    value {
      tensor {
        dtype: DT_STRING
        tensor_shape {
        }
        string_val: "\'image\' must be at least three-dimensional."
      }
    }
  }
}
node {
  name: "data/resize_image_with_crop_or_pad/assert_greater_equal/Assert/Assert/data_1"
  op: "Const"
  attr {
    key: "dtype"
    value {
      type: DT_STRING
    }
  }
  attr {
    key: "value"
    value {
      tensor {
        dtype: DT_STRING
        tensor_shape {
        }
        string_val: "Condition x >= y did not hold element-wise:"
      }
    }
  }
}
node {
  name: "data/resize_image_with_crop_or_pad/assert_greater_equal/Assert/Assert/data_2"
  op: "Const"
  attr {
    key: "dtype"
    value {
      type: DT_STRING
    }
  }
  attr {
    key: "value"
    value {
      tensor {
        dtype: DT_STRING
        tensor_shape {
        }
        string_val: "x (data/resize_image_with_crop_or_pad/Rank:0) = "
      }
    }
  }
}
node {
  name: "data/resize_image_with_crop_or_pad/assert_greater_equal/Assert/Assert/data_4"
  op: "Const"
  attr {
    key: "dtype"
    value {
      type: DT_STRING
    }
  }
  attr {
    key: "value"
    value {
      tensor {
        dtype: DT_STRING
        tensor_shape {
        }
        string_val: "y (data/resize_image_with_crop_or_pad/assert_greater_equal/y:0) = "
      }
    }
  }
}
node {
  name: "data/resize_image_with_crop_or_pad/assert_greater_equal/Assert/Assert"
  op: "Assert"
  input: "data/resize_image_with_crop_or_pad/assert_greater_equal/All"
  input: "data/resize_image_with_crop_or_pad/assert_greater_equal/Assert/Assert/data_0"
  input: "data/resize_image_with_crop_or_pad/assert_greater_equal/Assert/Assert/data_1"
  input: "data/resize_image_with_crop_or_pad/assert_greater_equal/Assert/Assert/data_2"
  input: "data/resize_image_with_crop_or_pad/Rank"
  input: "data/resize_image_with_crop_or_pad/assert_greater_equal/Assert/Assert/data_4"
  input: "data/resize_image_with_crop_or_pad/assert_greater_equal/y"
  attr {
    key: "T"
    value {
      list {
        type: DT_STRING
        type: DT_STRING
        type: DT_STRING
        type: DT_INT32
        type: DT_STRING
        type: DT_INT32
      }
    }
  }
  attr {
    key: "summarize"
    value {
      i: 3
    }
  }
}
node {
  name: "data/resize_image_with_crop_or_pad/control_dependency"
  op: "Identity"
  input: "data/resize/ResizeBilinear"
  input: "^data/resize_image_with_crop_or_pad/assert_greater_equal/Assert/Assert"
  input: "^data/resize_image_with_crop_or_pad/assert_positive/assert_less/Assert/Assert"
  attr {
    key: "T"
    value {
      type: DT_FLOAT
    }
  }
  attr {
    key: "_class"
    value {
      list {
        s: "loc:@data/resize/ResizeBilinear"
      }
    }
  }
}
node {
  name: "data/resize_image_with_crop_or_pad/Shape_1"
  op: "Shape"
  input: "data/resize_image_with_crop_or_pad/control_dependency"
  attr {
    key: "T"
    value {
      type: DT_FLOAT
    }
  }
  attr {
    key: "out_type"
    value {
      type: DT_INT32
    }
  }
}
node {
  name: "data/resize_image_with_crop_or_pad/unstack"
  op: "Unpack"
  input: "data/resize_image_with_crop_or_pad/Shape_1"
  attr {
    key: "T"
    value {
      type: DT_INT32
    }
  }
  attr {
    key: "axis"
    value {
      i: 0
    }
  }
  attr {
    key: "num"
    value {
      i: 4
    }
  }
}
node {
  name: "data/resize_image_with_crop_or_pad/sub/x"
  op: "Const"
  attr {
    key: "dtype"
    value {
      type: DT_INT32
    }
  }
  attr {
    key: "value"
    value {
      tensor {
        dtype: DT_INT32
        tensor_shape {
        }
        int_val: 16000
      }
    }
  }
}
node {
  name: "data/resize_image_with_crop_or_pad/sub"
  op: "Sub"
  input: "data/resize_image_with_crop_or_pad/sub/x"
  input: "data/resize_image_with_crop_or_pad/unstack:1"
  attr {
    key: "T"
    value {
      type: DT_INT32
    }
  }
}
node {
  name: "data/resize_image_with_crop_or_pad/Neg"
  op: "Neg"
  input: "data/resize_image_with_crop_or_pad/sub"
  attr {
    key: "T"
    value {
      type: DT_INT32
    }
  }
}
node {
  name: "data/resize_image_with_crop_or_pad/floordiv/y"
  op: "Const"
  attr {
    key: "dtype"
    value {
      type: DT_INT32
    }
  }
  attr {
    key: "value"
    value {
      tensor {
        dtype: DT_INT32
        tensor_shape {
        }
        int_val: 2
      }
    }
  }
}
node {
  name: "data/resize_image_with_crop_or_pad/floordiv"
  op: "FloorDiv"
  input: "data/resize_image_with_crop_or_pad/Neg"
  input: "data/resize_image_with_crop_or_pad/floordiv/y"
  attr {
    key: "T"
    value {
      type: DT_INT32
    }
  }
}
node {
  name: "data/resize_image_with_crop_or_pad/Maximum/y"
  op: "Const"
  attr {
    key: "dtype"
    value {
      type: DT_INT32
    }
  }
  attr {
    key: "value"
    value {
      tensor {
        dtype: DT_INT32
        tensor_shape {
        }
        int_val: 0
      }
    }
  }
}
node {
  name: "data/resize_image_with_crop_or_pad/Maximum"
  op: "Maximum"
  input: "data/resize_image_with_crop_or_pad/floordiv"
  input: "data/resize_image_with_crop_or_pad/Maximum/y"
  attr {
    key: "T"
    value {
      type: DT_INT32
    }
  }
}
node {
  name: "data/resize_image_with_crop_or_pad/floordiv_1/y"
  op: "Const"
  attr {
    key: "dtype"
    value {
      type: DT_INT32
    }
  }
  attr {
    key: "value"
    value {
      tensor {
        dtype: DT_INT32
        tensor_shape {
        }
        int_val: 2
      }
    }
  }
}
node {
  name: "data/resize_image_with_crop_or_pad/floordiv_1"
  op: "FloorDiv"
  input: "data/resize_image_with_crop_or_pad/sub"
  input: "data/resize_image_with_crop_or_pad/floordiv_1/y"
  attr {
    key: "T"
    value {
      type: DT_INT32
    }
  }
}
node {
  name: "data/resize_image_with_crop_or_pad/Maximum_1/y"
  op: "Const"
  attr {
    key: "dtype"
    value {
      type: DT_INT32
    }
  }
  attr {
    key: "value"
    value {
      tensor {
        dtype: DT_INT32
        tensor_shape {
        }
        int_val: 0
      }
    }
  }
}
node {
  name: "data/resize_image_with_crop_or_pad/Maximum_1"
  op: "Maximum"
  input: "data/resize_image_with_crop_or_pad/floordiv_1"
  input: "data/resize_image_with_crop_or_pad/Maximum_1/y"
  attr {
    key: "T"
    value {
      type: DT_INT32
    }
  }
}
node {
  name: "data/resize_image_with_crop_or_pad/Minimum/x"
  op: "Const"
  attr {
    key: "dtype"
    value {
      type: DT_INT32
    }
  }
  attr {
    key: "value"
    value {
      tensor {
        dtype: DT_INT32
        tensor_shape {
        }
        int_val: 16000
      }
    }
  }
}
node {
  name: "data/resize_image_with_crop_or_pad/Minimum"
  op: "Minimum"
  input: "data/resize_image_with_crop_or_pad/Minimum/x"
  input: "data/resize_image_with_crop_or_pad/unstack:1"
  attr {
    key: "T"
    value {
      type: DT_INT32
    }
  }
}
node {
  name: "data/resize_image_with_crop_or_pad/crop_to_bounding_box/Shape"
  op: "Shape"
  input: "data/resize_image_with_crop_or_pad/control_dependency"
  attr {
    key: "T"
    value {
      type: DT_FLOAT
    }
  }
  attr {
    key: "out_type"
    value {
      type: DT_INT32
    }
  }
}
node {
  name: "data/resize_image_with_crop_or_pad/crop_to_bounding_box/strided_slice/stack"
  op: "Const"
  attr {
    key: "dtype"
    value {
      type: DT_INT32
    }
  }
  attr {
    key: "value"
    value {
      tensor {
        dtype: DT_INT32
        tensor_shape {
          dim {
            size: 1
          }
        }
        int_val: -3
      }
    }
  }
}
node {
  name: "data/resize_image_with_crop_or_pad/crop_to_bounding_box/strided_slice/stack_1"
  op: "Const"
  attr {
    key: "dtype"
    value {
      type: DT_INT32
    }
  }
  attr {
    key: "value"
    value {
      tensor {
        dtype: DT_INT32
        tensor_shape {
          dim {
            size: 1
          }
        }
        int_val: 0
      }
    }
  }
}
node {
  name: "data/resize_image_with_crop_or_pad/crop_to_bounding_box/strided_slice/stack_2"
  op: "Const"
  attr {
    key: "dtype"
    value {
      type: DT_INT32
    }
  }
  attr {
    key: "value"
    value {
      tensor {
        dtype: DT_INT32
        tensor_shape {
          dim {
            size: 1
          }
        }
        int_val: 1
      }
    }
  }
}
node {
  name: "data/resize_image_with_crop_or_pad/crop_to_bounding_box/strided_slice"
  op: "StridedSlice"
  input: "data/resize_image_with_crop_or_pad/crop_to_bounding_box/Shape"
  input: "data/resize_image_with_crop_or_pad/crop_to_bounding_box/strided_slice/stack"
  input: "data/resize_image_with_crop_or_pad/crop_to_bounding_box/strided_slice/stack_1"
  input: "data/resize_image_with_crop_or_pad/crop_to_bounding_box/strided_slice/stack_2"
  attr {
    key: "Index"
    value {
      type: DT_INT32
    }
  }
  attr {
    key: "T"
    value {
      type: DT_INT32
    }
  }
  attr {
    key: "begin_mask"
    value {
      i: 0
    }
  }
  attr {
    key: "ellipsis_mask"
    value {
      i: 0
    }
  }
  attr {
    key: "end_mask"
    value {
      i: 1
    }
  }
  attr {
    key: "new_axis_mask"
    value {
      i: 0
    }
  }
  attr {
    key: "shrink_axis_mask"
    value {
      i: 0
    }
  }
}
node {
  name: "data/resize_image_with_crop_or_pad/crop_to_bounding_box/assert_positive/Const"
  op: "Const"
  attr {
    key: "dtype"
    value {
      type: DT_INT32
    }
  }
  attr {
    key: "value"
    value {
      tensor {
        dtype: DT_INT32
        tensor_shape {
        }
        int_val: 0
      }
    }
  }
}
node {
  name: "data/resize_image_with_crop_or_pad/crop_to_bounding_box/assert_positive/assert_less/Less"
  op: "Less"
  input: "data/resize_image_with_crop_or_pad/crop_to_bounding_box/assert_positive/Const"
  input: "data/resize_image_with_crop_or_pad/crop_to_bounding_box/strided_slice"
  attr {
    key: "T"
    value {
      type: DT_INT32
    }
  }
}
node {
  name: "data/resize_image_with_crop_or_pad/crop_to_bounding_box/assert_positive/assert_less/Const"
  op: "Const"
  attr {
    key: "dtype"
    value {
      type: DT_INT32
    }
  }
  attr {
    key: "value"
    value {
      tensor {
        dtype: DT_INT32
        tensor_shape {
          dim {
            size: 1
          }
        }
        int_val: 0
      }
    }
  }
}
node {
  name: "data/resize_image_with_crop_or_pad/crop_to_bounding_box/assert_positive/assert_less/All"
  op: "All"
  input: "data/resize_image_with_crop_or_pad/crop_to_bounding_box/assert_positive/assert_less/Less"
  input: "data/resize_image_with_crop_or_pad/crop_to_bounding_box/assert_positive/assert_less/Const"
  attr {
    key: "Tidx"
    value {
      type: DT_INT32
    }
  }
  attr {
    key: "keep_dims"
    value {
      b: false
    }
  }
}
node {
  name: "data/resize_image_with_crop_or_pad/crop_to_bounding_box/assert_positive/assert_less/Assert/Const"
  op: "Const"
  attr {
    key: "dtype"
    value {
      type: DT_STRING
    }
  }
  attr {
    key: "value"
    value {
      tensor {
        dtype: DT_STRING
        tensor_shape {
        }
        string_val: "inner 3 dims of \'image.shape\' must be > 0."
      }
    }
  }
}
node {
  name: "data/resize_image_with_crop_or_pad/crop_to_bounding_box/assert_positive/assert_less/Assert/Assert/data_0"
  op: "Const"
  attr {
    key: "dtype"
    value {
      type: DT_STRING
    }
  }
  attr {
    key: "value"
    value {
      tensor {
        dtype: DT_STRING
        tensor_shape {
        }
        string_val: "inner 3 dims of \'image.shape\' must be > 0."
      }
    }
  }
}
node {
  name: "data/resize_image_with_crop_or_pad/crop_to_bounding_box/assert_positive/assert_less/Assert/Assert"
  op: "Assert"
  input: "data/resize_image_with_crop_or_pad/crop_to_bounding_box/assert_positive/assert_less/All"
  input: "data/resize_image_with_crop_or_pad/crop_to_bounding_box/assert_positive/assert_less/Assert/Assert/data_0"
  attr {
    key: "T"
    value {
      list {
        type: DT_STRING
      }
    }
  }
  attr {
    key: "summarize"
    value {
      i: 3
    }
  }
}
node {
  name: "data/resize_image_with_crop_or_pad/crop_to_bounding_box/Rank"
  op: "Const"
  attr {
    key: "dtype"
    value {
      type: DT_INT32
    }
  }
  attr {
    key: "value"
    value {
      tensor {
        dtype: DT_INT32
        tensor_shape {
        }
        int_val: 4
      }
    }
  }
}
node {
  name: "data/resize_image_with_crop_or_pad/crop_to_bounding_box/assert_greater_equal/y"
  op: "Const"
  attr {
    key: "dtype"
    value {
      type: DT_INT32
    }
  }
  attr {
    key: "value"
    value {
      tensor {
        dtype: DT_INT32
        tensor_shape {
        }
        int_val: 3
      }
    }
  }
}
node {
  name: "data/resize_image_with_crop_or_pad/crop_to_bounding_box/assert_greater_equal/GreaterEqual"
  op: "GreaterEqual"
  input: "data/resize_image_with_crop_or_pad/crop_to_bounding_box/Rank"
  input: "data/resize_image_with_crop_or_pad/crop_to_bounding_box/assert_greater_equal/y"
  attr {
    key: "T"
    value {
      type: DT_INT32
    }
  }
}
node {
  name: "data/resize_image_with_crop_or_pad/crop_to_bounding_box/assert_greater_equal/Rank"
  op: "Const"
  attr {
    key: "dtype"
    value {
      type: DT_INT32
    }
  }
  attr {
    key: "value"
    value {
      tensor {
        dtype: DT_INT32
        tensor_shape {
        }
        int_val: 0
      }
    }
  }
}
node {
  name: "data/resize_image_with_crop_or_pad/crop_to_bounding_box/assert_greater_equal/range/start"
  op: "Const"
  attr {
    key: "dtype"
    value {
      type: DT_INT32
    }
  }
  attr {
    key: "value"
    value {
      tensor {
        dtype: DT_INT32
        tensor_shape {
        }
        int_val: 0
      }
    }
  }
}
node {
  name: "data/resize_image_with_crop_or_pad/crop_to_bounding_box/assert_greater_equal/range/delta"
  op: "Const"
  attr {
    key: "dtype"
    value {
      type: DT_INT32
    }
  }
  attr {
    key: "value"
    value {
      tensor {
        dtype: DT_INT32
        tensor_shape {
        }
        int_val: 1
      }
    }
  }
}
node {
  name: "data/resize_image_with_crop_or_pad/crop_to_bounding_box/assert_greater_equal/range"
  op: "Range"
  input: "data/resize_image_with_crop_or_pad/crop_to_bounding_box/assert_greater_equal/range/start"
  input: "data/resize_image_with_crop_or_pad/crop_to_bounding_box/assert_greater_equal/Rank"
  input: "data/resize_image_with_crop_or_pad/crop_to_bounding_box/assert_greater_equal/range/delta"
  attr {
    key: "Tidx"
    value {
      type: DT_INT32
    }
  }
}
node {
  name: "data/resize_image_with_crop_or_pad/crop_to_bounding_box/assert_greater_equal/All"
  op: "All"
  input: "data/resize_image_with_crop_or_pad/crop_to_bounding_box/assert_greater_equal/GreaterEqual"
  input: "data/resize_image_with_crop_or_pad/crop_to_bounding_box/assert_greater_equal/range"
  attr {
    key: "Tidx"
    value {
      type: DT_INT32
    }
  }
  attr {
    key: "keep_dims"
    value {
      b: false
    }
  }
}
node {
  name: "data/resize_image_with_crop_or_pad/crop_to_bounding_box/assert_greater_equal/Assert/Const"
  op: "Const"
  attr {
    key: "dtype"
    value {
      type: DT_STRING
    }
  }
  attr {
    key: "value"
    value {
      tensor {
        dtype: DT_STRING
        tensor_shape {
        }
        string_val: "\'image\' must be at least three-dimensional."
      }
    }
  }
}
node {
  name: "data/resize_image_with_crop_or_pad/crop_to_bounding_box/assert_greater_equal/Assert/Const_1"
  op: "Const"
  attr {
    key: "dtype"
    value {
      type: DT_STRING
    }
  }
  attr {
    key: "value"
    value {
      tensor {
        dtype: DT_STRING
        tensor_shape {
        }
        string_val: "Condition x >= y did not hold element-wise:"
      }
    }
  }
}
node {
  name: "data/resize_image_with_crop_or_pad/crop_to_bounding_box/assert_greater_equal/Assert/Const_2"
  op: "Const"
  attr {
    key: "dtype"
    value {
      type: DT_STRING
    }
  }
  attr {
    key: "value"
    value {
      tensor {
        dtype: DT_STRING
        tensor_shape {
        }
        string_val: "x (data/resize_image_with_crop_or_pad/crop_to_bounding_box/Rank:0) = "
      }
    }
  }
}
node {
  name: "data/resize_image_with_crop_or_pad/crop_to_bounding_box/assert_greater_equal/Assert/Const_3"
  op: "Const"
  attr {
    key: "dtype"
    value {
      type: DT_STRING
    }
  }
  attr {
    key: "value"
    value {
      tensor {
        dtype: DT_STRING
        tensor_shape {
        }
        string_val: "y (data/resize_image_with_crop_or_pad/crop_to_bounding_box/assert_greater_equal/y:0) = "
      }
    }
  }
}
node {
  name: "data/resize_image_with_crop_or_pad/crop_to_bounding_box/assert_greater_equal/Assert/Assert/data_0"
  op: "Const"
  attr {
    key: "dtype"
    value {
      type: DT_STRING
    }
  }
  attr {
    key: "value"
    value {
      tensor {
        dtype: DT_STRING
        tensor_shape {
        }
        string_val: "\'image\' must be at least three-dimensional."
      }
    }
  }
}
node {
  name: "data/resize_image_with_crop_or_pad/crop_to_bounding_box/assert_greater_equal/Assert/Assert/data_1"
  op: "Const"
  attr {
    key: "dtype"
    value {
      type: DT_STRING
    }
  }
  attr {
    key: "value"
    value {
      tensor {
        dtype: DT_STRING
        tensor_shape {
        }
        string_val: "Condition x >= y did not hold element-wise:"
      }
    }
  }
}
node {
  name: "data/resize_image_with_crop_or_pad/crop_to_bounding_box/assert_greater_equal/Assert/Assert/data_2"
  op: "Const"
  attr {
    key: "dtype"
    value {
      type: DT_STRING
    }
  }
  attr {
    key: "value"
    value {
      tensor {
        dtype: DT_STRING
        tensor_shape {
        }
        string_val: "x (data/resize_image_with_crop_or_pad/crop_to_bounding_box/Rank:0) = "
      }
    }
  }
}
node {
  name: "data/resize_image_with_crop_or_pad/crop_to_bounding_box/assert_greater_equal/Assert/Assert/data_4"
  op: "Const"
  attr {
    key: "dtype"
    value {
      type: DT_STRING
    }
  }
  attr {
    key: "value"
    value {
      tensor {
        dtype: DT_STRING
        tensor_shape {
        }
        string_val: "y (data/resize_image_with_crop_or_pad/crop_to_bounding_box/assert_greater_equal/y:0) = "
      }
    }
  }
}
node {
  name: "data/resize_image_with_crop_or_pad/crop_to_bounding_box/assert_greater_equal/Assert/Assert"
  op: "Assert"
  input: "data/resize_image_with_crop_or_pad/crop_to_bounding_box/assert_greater_equal/All"
  input: "data/resize_image_with_crop_or_pad/crop_to_bounding_box/assert_greater_equal/Assert/Assert/data_0"
  input: "data/resize_image_with_crop_or_pad/crop_to_bounding_box/assert_greater_equal/Assert/Assert/data_1"
  input: "data/resize_image_with_crop_or_pad/crop_to_bounding_box/assert_greater_equal/Assert/Assert/data_2"
  input: "data/resize_image_with_crop_or_pad/crop_to_bounding_box/Rank"
  input: "data/resize_image_with_crop_or_pad/crop_to_bounding_box/assert_greater_equal/Assert/Assert/data_4"
  input: "data/resize_image_with_crop_or_pad/crop_to_bounding_box/assert_greater_equal/y"
  attr {
    key: "T"
    value {
      list {
        type: DT_STRING
        type: DT_STRING
        type: DT_STRING
        type: DT_INT32
        type: DT_STRING
        type: DT_INT32
      }
    }
  }
  attr {
    key: "summarize"
    value {
      i: 3
    }
  }
}
node {
  name: "data/resize_image_with_crop_or_pad/crop_to_bounding_box/Shape_1"
  op: "Shape"
  input: "data/resize_image_with_crop_or_pad/control_dependency"
  attr {
    key: "T"
    value {
      type: DT_FLOAT
    }
  }
  attr {
    key: "out_type"
    value {
      type: DT_INT32
    }
  }
}
node {
  name: "data/resize_image_with_crop_or_pad/crop_to_bounding_box/unstack"
  op: "Unpack"
  input: "data/resize_image_with_crop_or_pad/crop_to_bounding_box/Shape_1"
  attr {
    key: "T"
    value {
      type: DT_INT32
    }
  }
  attr {
    key: "axis"
    value {
      i: 0
    }
  }
  attr {
    key: "num"
    value {
      i: 4
    }
  }
}
node {
  name: "data/resize_image_with_crop_or_pad/crop_to_bounding_box/GreaterEqual/y"
  op: "Const"
  attr {
    key: "dtype"
    value {
      type: DT_INT32
    }
  }
  attr {
    key: "value"
    value {
      tensor {
        dtype: DT_INT32
        tensor_shape {
        }
        int_val: 0
      }
    }
  }
}
node {
  name: "data/resize_image_with_crop_or_pad/crop_to_bounding_box/GreaterEqual"
  op: "GreaterEqual"
  input: "data/resize_image_with_crop_or_pad/Maximum"
  input: "data/resize_image_with_crop_or_pad/crop_to_bounding_box/GreaterEqual/y"
  attr {
    key: "T"
    value {
      type: DT_INT32
    }
  }
}
node {
  name: "data/resize_image_with_crop_or_pad/crop_to_bounding_box/Assert/Const"
  op: "Const"
  attr {
    key: "dtype"
    value {
      type: DT_STRING
    }
  }
  attr {
    key: "value"
    value {
      tensor {
        dtype: DT_STRING
        tensor_shape {
        }
        string_val: "offset_height must be >= 0."
      }
    }
  }
}
node {
  name: "data/resize_image_with_crop_or_pad/crop_to_bounding_box/Assert/Assert/data_0"
  op: "Const"
  attr {
    key: "dtype"
    value {
      type: DT_STRING
    }
  }
  attr {
    key: "value"
    value {
      tensor {
        dtype: DT_STRING
        tensor_shape {
        }
        string_val: "offset_height must be >= 0."
      }
    }
  }
}
node {
  name: "data/resize_image_with_crop_or_pad/crop_to_bounding_box/Assert/Assert"
  op: "Assert"
  input: "data/resize_image_with_crop_or_pad/crop_to_bounding_box/GreaterEqual"
  input: "data/resize_image_with_crop_or_pad/crop_to_bounding_box/Assert/Assert/data_0"
  attr {
    key: "T"
    value {
      list {
        type: DT_STRING
      }
    }
  }
  attr {
    key: "summarize"
    value {
      i: 3
    }
  }
}
node {
  name: "data/resize_image_with_crop_or_pad/crop_to_bounding_box/Greater/y"
  op: "Const"
  attr {
    key: "dtype"
    value {
      type: DT_INT32
    }
  }
  attr {
    key: "value"
    value {
      tensor {
        dtype: DT_INT32
        tensor_shape {
        }
        int_val: 0
      }
    }
  }
}
node {
  name: "data/resize_image_with_crop_or_pad/crop_to_bounding_box/Greater"
  op: "Greater"
  input: "data/resize_image_with_crop_or_pad/Minimum"
  input: "data/resize_image_with_crop_or_pad/crop_to_bounding_box/Greater/y"
  attr {
    key: "T"
    value {
      type: DT_INT32
    }
  }
}
node {
  name: "data/resize_image_with_crop_or_pad/crop_to_bounding_box/Assert_1/Const"
  op: "Const"
  attr {
    key: "dtype"
    value {
      type: DT_STRING
    }
  }
  attr {
    key: "value"
    value {
      tensor {
        dtype: DT_STRING
        tensor_shape {
        }
        string_val: "target_height must be > 0."
      }
    }
  }
}
node {
  name: "data/resize_image_with_crop_or_pad/crop_to_bounding_box/Assert_1/Assert/data_0"
  op: "Const"
  attr {
    key: "dtype"
    value {
      type: DT_STRING
    }
  }
  attr {
    key: "value"
    value {
      tensor {
        dtype: DT_STRING
        tensor_shape {
        }
        string_val: "target_height must be > 0."
      }
    }
  }
}
node {
  name: "data/resize_image_with_crop_or_pad/crop_to_bounding_box/Assert_1/Assert"
  op: "Assert"
  input: "data/resize_image_with_crop_or_pad/crop_to_bounding_box/Greater"
  input: "data/resize_image_with_crop_or_pad/crop_to_bounding_box/Assert_1/Assert/data_0"
  attr {
    key: "T"
    value {
      list {
        type: DT_STRING
      }
    }
  }
  attr {
    key: "summarize"
    value {
      i: 3
    }
  }
}
node {
  name: "data/resize_image_with_crop_or_pad/crop_to_bounding_box/add"
  op: "AddV2"
  input: "data/resize_image_with_crop_or_pad/Minimum"
  input: "data/resize_image_with_crop_or_pad/Maximum"
  attr {
    key: "T"
    value {
      type: DT_INT32
    }
  }
}
node {
  name: "data/resize_image_with_crop_or_pad/crop_to_bounding_box/GreaterEqual_1"
  op: "GreaterEqual"
  input: "data/resize_image_with_crop_or_pad/crop_to_bounding_box/unstack:1"
  input: "data/resize_image_with_crop_or_pad/crop_to_bounding_box/add"
  attr {
    key: "T"
    value {
      type: DT_INT32
    }
  }
}
node {
  name: "data/resize_image_with_crop_or_pad/crop_to_bounding_box/Assert_2/Const"
  op: "Const"
  attr {
    key: "dtype"
    value {
      type: DT_STRING
    }
  }
  attr {
    key: "value"
    value {
      tensor {
        dtype: DT_STRING
        tensor_shape {
        }
        string_val: "height must be >= target + offset."
      }
    }
  }
}
node {
  name: "data/resize_image_with_crop_or_pad/crop_to_bounding_box/Assert_2/Assert/data_0"
  op: "Const"
  attr {
    key: "dtype"
    value {
      type: DT_STRING
    }
  }
  attr {
    key: "value"
    value {
      tensor {
        dtype: DT_STRING
        tensor_shape {
        }
        string_val: "height must be >= target + offset."
      }
    }
  }
}
node {
  name: "data/resize_image_with_crop_or_pad/crop_to_bounding_box/Assert_2/Assert"
  op: "Assert"
  input: "data/resize_image_with_crop_or_pad/crop_to_bounding_box/GreaterEqual_1"
  input: "data/resize_image_with_crop_or_pad/crop_to_bounding_box/Assert_2/Assert/data_0"
  attr {
    key: "T"
    value {
      list {
        type: DT_STRING
      }
    }
  }
  attr {
    key: "summarize"
    value {
      i: 3
    }
  }
}
node {
  name: "data/resize_image_with_crop_or_pad/crop_to_bounding_box/control_dependency"
  op: "Identity"
  input: "data/resize_image_with_crop_or_pad/control_dependency"
  input: "^data/resize_image_with_crop_or_pad/crop_to_bounding_box/Assert/Assert"
  input: "^data/resize_image_with_crop_or_pad/crop_to_bounding_box/Assert_1/Assert"
  input: "^data/resize_image_with_crop_or_pad/crop_to_bounding_box/Assert_2/Assert"
  input: "^data/resize_image_with_crop_or_pad/crop_to_bounding_box/assert_greater_equal/Assert/Assert"
  input: "^data/resize_image_with_crop_or_pad/crop_to_bounding_box/assert_positive/assert_less/Assert/Assert"
  attr {
    key: "T"
    value {
      type: DT_FLOAT
    }
  }
  attr {
    key: "_class"
    value {
      list {
        s: "loc:@data/resize/ResizeBilinear"
      }
    }
  }
}
node {
  name: "data/resize_image_with_crop_or_pad/crop_to_bounding_box/stack/0"
  op: "Const"
  attr {
    key: "dtype"
    value {
      type: DT_INT32
    }
  }
  attr {
    key: "value"
    value {
      tensor {
        dtype: DT_INT32
        tensor_shape {
        }
        int_val: 0
      }
    }
  }
}
node {
  name: "data/resize_image_with_crop_or_pad/crop_to_bounding_box/stack/2"
  op: "Const"
  attr {
    key: "dtype"
    value {
      type: DT_INT32
    }
  }
  attr {
    key: "value"
    value {
      tensor {
        dtype: DT_INT32
        tensor_shape {
        }
        int_val: 0
      }
    }
  }
}
node {
  name: "data/resize_image_with_crop_or_pad/crop_to_bounding_box/stack/3"
  op: "Const"
  attr {
    key: "dtype"
    value {
      type: DT_INT32
    }
  }
  attr {
    key: "value"
    value {
      tensor {
        dtype: DT_INT32
        tensor_shape {
        }
        int_val: 0
      }
    }
  }
}
node {
  name: "data/resize_image_with_crop_or_pad/crop_to_bounding_box/stack"
  op: "Pack"
  input: "data/resize_image_with_crop_or_pad/crop_to_bounding_box/stack/0"
  input: "data/resize_image_with_crop_or_pad/Maximum"
  input: "data/resize_image_with_crop_or_pad/crop_to_bounding_box/stack/2"
  input: "data/resize_image_with_crop_or_pad/crop_to_bounding_box/stack/3"
  attr {
    key: "N"
    value {
      i: 4
    }
  }
  attr {
    key: "T"
    value {
      type: DT_INT32
    }
  }
  attr {
    key: "axis"
    value {
      i: 0
    }
  }
}
node {
  name: "data/resize_image_with_crop_or_pad/crop_to_bounding_box/Shape_2"
  op: "Shape"
  input: "data/resize_image_with_crop_or_pad/crop_to_bounding_box/control_dependency"
  attr {
    key: "T"
    value {
      type: DT_FLOAT
    }
  }
  attr {
    key: "out_type"
    value {
      type: DT_INT32
    }
  }
}
node {
  name: "data/resize_image_with_crop_or_pad/crop_to_bounding_box/strided_slice_1/stack"
  op: "Const"
  attr {
    key: "dtype"
    value {
      type: DT_INT32
    }
  }
  attr {
    key: "value"
    value {
      tensor {
        dtype: DT_INT32
        tensor_shape {
          dim {
            size: 1
          }
        }
        int_val: 0
      }
    }
  }
}
node {
  name: "data/resize_image_with_crop_or_pad/crop_to_bounding_box/strided_slice_1/stack_1"
  op: "Const"
  attr {
    key: "dtype"
    value {
      type: DT_INT32
    }
  }
  attr {
    key: "value"
    value {
      tensor {
        dtype: DT_INT32
        tensor_shape {
          dim {
            size: 1
          }
        }
        int_val: 1
      }
    }
  }
}
node {
  name: "data/resize_image_with_crop_or_pad/crop_to_bounding_box/strided_slice_1/stack_2"
  op: "Const"
  attr {
    key: "dtype"
    value {
      type: DT_INT32
    }
  }
  attr {
    key: "value"
    value {
      tensor {
        dtype: DT_INT32
        tensor_shape {
          dim {
            size: 1
          }
        }
        int_val: 1
      }
    }
  }
}
node {
  name: "data/resize_image_with_crop_or_pad/crop_to_bounding_box/strided_slice_1"
  op: "StridedSlice"
  input: "data/resize_image_with_crop_or_pad/crop_to_bounding_box/Shape_2"
  input: "data/resize_image_with_crop_or_pad/crop_to_bounding_box/strided_slice_1/stack"
  input: "data/resize_image_with_crop_or_pad/crop_to_bounding_box/strided_slice_1/stack_1"
  input: "data/resize_image_with_crop_or_pad/crop_to_bounding_box/strided_slice_1/stack_2"
  attr {
    key: "Index"
    value {
      type: DT_INT32
    }
  }
  attr {
    key: "T"
    value {
      type: DT_INT32
    }
  }
  attr {
    key: "begin_mask"
    value {
      i: 0
    }
  }
  attr {
    key: "ellipsis_mask"
    value {
      i: 0
    }
  }
  attr {
    key: "end_mask"
    value {
      i: 0
    }
  }
  attr {
    key: "new_axis_mask"
    value {
      i: 0
    }
  }
  attr {
    key: "shrink_axis_mask"
    value {
      i: 1
    }
  }
}
node {
  name: "data/resize_image_with_crop_or_pad/crop_to_bounding_box/Shape_3"
  op: "Shape"
  input: "data/resize_image_with_crop_or_pad/crop_to_bounding_box/control_dependency"
  attr {
    key: "T"
    value {
      type: DT_FLOAT
    }
  }
  attr {
    key: "out_type"
    value {
      type: DT_INT32
    }
  }
}
node {
  name: "data/resize_image_with_crop_or_pad/crop_to_bounding_box/strided_slice_2/stack"
  op: "Const"
  attr {
    key: "dtype"
    value {
      type: DT_INT32
    }
  }
  attr {
    key: "value"
    value {
      tensor {
        dtype: DT_INT32
        tensor_shape {
          dim {
            size: 1
          }
        }
        int_val: 3
      }
    }
  }
}
node {
  name: "data/resize_image_with_crop_or_pad/crop_to_bounding_box/strided_slice_2/stack_1"
  op: "Const"
  attr {
    key: "dtype"
    value {
      type: DT_INT32
    }
  }
  attr {
    key: "value"
    value {
      tensor {
        dtype: DT_INT32
        tensor_shape {
          dim {
            size: 1
          }
        }
        int_val: 4
      }
    }
  }
}
node {
  name: "data/resize_image_with_crop_or_pad/crop_to_bounding_box/strided_slice_2/stack_2"
  op: "Const"
  attr {
    key: "dtype"
    value {
      type: DT_INT32
    }
  }
  attr {
    key: "value"
    value {
      tensor {
        dtype: DT_INT32
        tensor_shape {
          dim {
            size: 1
          }
        }
        int_val: 1
      }
    }
  }
}
node {
  name: "data/resize_image_with_crop_or_pad/crop_to_bounding_box/strided_slice_2"
  op: "StridedSlice"
  input: "data/resize_image_with_crop_or_pad/crop_to_bounding_box/Shape_3"
  input: "data/resize_image_with_crop_or_pad/crop_to_bounding_box/strided_slice_2/stack"
  input: "data/resize_image_with_crop_or_pad/crop_to_bounding_box/strided_slice_2/stack_1"
  input: "data/resize_image_with_crop_or_pad/crop_to_bounding_box/strided_slice_2/stack_2"
  attr {
    key: "Index"
    value {
      type: DT_INT32
    }
  }
  attr {
    key: "T"
    value {
      type: DT_INT32
    }
  }
  attr {
    key: "begin_mask"
    value {
      i: 0
    }
  }
  attr {
    key: "ellipsis_mask"
    value {
      i: 0
    }
  }
  attr {
    key: "end_mask"
    value {
      i: 0
    }
  }
  attr {
    key: "new_axis_mask"
    value {
      i: 0
    }
  }
  attr {
    key: "shrink_axis_mask"
    value {
      i: 1
    }
  }
}
node {
  name: "data/resize_image_with_crop_or_pad/crop_to_bounding_box/stack_1/2"
  op: "Const"
  attr {
    key: "dtype"
    value {
      type: DT_INT32
    }
  }
  attr {
    key: "value"
    value {
      tensor {
        dtype: DT_INT32
        tensor_shape {
        }
        int_val: 1
      }
    }
  }
}
node {
  name: "data/resize_image_with_crop_or_pad/crop_to_bounding_box/stack_1"
  op: "Pack"
  input: "data/resize_image_with_crop_or_pad/crop_to_bounding_box/strided_slice_1"
  input: "data/resize_image_with_crop_or_pad/Minimum"
  input: "data/resize_image_with_crop_or_pad/crop_to_bounding_box/stack_1/2"
  input: "data/resize_image_with_crop_or_pad/crop_to_bounding_box/strided_slice_2"
  attr {
    key: "N"
    value {
      i: 4
    }
  }
  attr {
    key: "T"
    value {
      type: DT_INT32
    }
  }
  attr {
    key: "axis"
    value {
      i: 0
    }
  }
}
node {
  name: "data/resize_image_with_crop_or_pad/crop_to_bounding_box/Slice"
  op: "Slice"
  input: "data/resize_image_with_crop_or_pad/crop_to_bounding_box/control_dependency"
  input: "data/resize_image_with_crop_or_pad/crop_to_bounding_box/stack"
  input: "data/resize_image_with_crop_or_pad/crop_to_bounding_box/stack_1"
  attr {
    key: "Index"
    value {
      type: DT_INT32
    }
  }
  attr {
    key: "T"
    value {
      type: DT_FLOAT
    }
  }
}
node {
  name: "data/resize_image_with_crop_or_pad/pad_to_bounding_box/Shape"
  op: "Shape"
  input: "data/resize_image_with_crop_or_pad/crop_to_bounding_box/Slice"
  attr {
    key: "T"
    value {
      type: DT_FLOAT
    }
  }
  attr {
    key: "out_type"
    value {
      type: DT_INT32
    }
  }
}
node {
  name: "data/resize_image_with_crop_or_pad/pad_to_bounding_box/strided_slice/stack"
  op: "Const"
  attr {
    key: "dtype"
    value {
      type: DT_INT32
    }
  }
  attr {
    key: "value"
    value {
      tensor {
        dtype: DT_INT32
        tensor_shape {
          dim {
            size: 1
          }
        }
        int_val: -3
      }
    }
  }
}
node {
  name: "data/resize_image_with_crop_or_pad/pad_to_bounding_box/strided_slice/stack_1"
  op: "Const"
  attr {
    key: "dtype"
    value {
      type: DT_INT32
    }
  }
  attr {
    key: "value"
    value {
      tensor {
        dtype: DT_INT32
        tensor_shape {
          dim {
            size: 1
          }
        }
        int_val: 0
      }
    }
  }
}
node {
  name: "data/resize_image_with_crop_or_pad/pad_to_bounding_box/strided_slice/stack_2"
  op: "Const"
  attr {
    key: "dtype"
    value {
      type: DT_INT32
    }
  }
  attr {
    key: "value"
    value {
      tensor {
        dtype: DT_INT32
        tensor_shape {
          dim {
            size: 1
          }
        }
        int_val: 1
      }
    }
  }
}
node {
  name: "data/resize_image_with_crop_or_pad/pad_to_bounding_box/strided_slice"
  op: "StridedSlice"
  input: "data/resize_image_with_crop_or_pad/pad_to_bounding_box/Shape"
  input: "data/resize_image_with_crop_or_pad/pad_to_bounding_box/strided_slice/stack"
  input: "data/resize_image_with_crop_or_pad/pad_to_bounding_box/strided_slice/stack_1"
  input: "data/resize_image_with_crop_or_pad/pad_to_bounding_box/strided_slice/stack_2"
  attr {
    key: "Index"
    value {
      type: DT_INT32
    }
  }
  attr {
    key: "T"
    value {
      type: DT_INT32
    }
  }
  attr {
    key: "begin_mask"
    value {
      i: 0
    }
  }
  attr {
    key: "ellipsis_mask"
    value {
      i: 0
    }
  }
  attr {
    key: "end_mask"
    value {
      i: 1
    }
  }
  attr {
    key: "new_axis_mask"
    value {
      i: 0
    }
  }
  attr {
    key: "shrink_axis_mask"
    value {
      i: 0
    }
  }
}
node {
  name: "data/resize_image_with_crop_or_pad/pad_to_bounding_box/assert_positive/Const"
  op: "Const"
  attr {
    key: "dtype"
    value {
      type: DT_INT32
    }
  }
  attr {
    key: "value"
    value {
      tensor {
        dtype: DT_INT32
        tensor_shape {
        }
        int_val: 0
      }
    }
  }
}
node {
  name: "data/resize_image_with_crop_or_pad/pad_to_bounding_box/assert_positive/assert_less/Less"
  op: "Less"
  input: "data/resize_image_with_crop_or_pad/pad_to_bounding_box/assert_positive/Const"
  input: "data/resize_image_with_crop_or_pad/pad_to_bounding_box/strided_slice"
  attr {
    key: "T"
    value {
      type: DT_INT32
    }
  }
}
node {
  name: "data/resize_image_with_crop_or_pad/pad_to_bounding_box/assert_positive/assert_less/Const"
  op: "Const"
  attr {
    key: "dtype"
    value {
      type: DT_INT32
    }
  }
  attr {
    key: "value"
    value {
      tensor {
        dtype: DT_INT32
        tensor_shape {
          dim {
            size: 1
          }
        }
        int_val: 0
      }
    }
  }
}
node {
  name: "data/resize_image_with_crop_or_pad/pad_to_bounding_box/assert_positive/assert_less/All"
  op: "All"
  input: "data/resize_image_with_crop_or_pad/pad_to_bounding_box/assert_positive/assert_less/Less"
  input: "data/resize_image_with_crop_or_pad/pad_to_bounding_box/assert_positive/assert_less/Const"
  attr {
    key: "Tidx"
    value {
      type: DT_INT32
    }
  }
  attr {
    key: "keep_dims"
    value {
      b: false
    }
  }
}
node {
  name: "data/resize_image_with_crop_or_pad/pad_to_bounding_box/assert_positive/assert_less/Assert/Const"
  op: "Const"
  attr {
    key: "dtype"
    value {
      type: DT_STRING
    }
  }
  attr {
    key: "value"
    value {
      tensor {
        dtype: DT_STRING
        tensor_shape {
        }
        string_val: "inner 3 dims of \'image.shape\' must be > 0."
      }
    }
  }
}
node {
  name: "data/resize_image_with_crop_or_pad/pad_to_bounding_box/assert_positive/assert_less/Assert/Assert/data_0"
  op: "Const"
  attr {
    key: "dtype"
    value {
      type: DT_STRING
    }
  }
  attr {
    key: "value"
    value {
      tensor {
        dtype: DT_STRING
        tensor_shape {
        }
        string_val: "inner 3 dims of \'image.shape\' must be > 0."
      }
    }
  }
}
node {
  name: "data/resize_image_with_crop_or_pad/pad_to_bounding_box/assert_positive/assert_less/Assert/Assert"
  op: "Assert"
  input: "data/resize_image_with_crop_or_pad/pad_to_bounding_box/assert_positive/assert_less/All"
  input: "data/resize_image_with_crop_or_pad/pad_to_bounding_box/assert_positive/assert_less/Assert/Assert/data_0"
  attr {
    key: "T"
    value {
      list {
        type: DT_STRING
      }
    }
  }
  attr {
    key: "summarize"
    value {
      i: 3
    }
  }
}
node {
  name: "data/resize_image_with_crop_or_pad/pad_to_bounding_box/Rank"
  op: "Const"
  attr {
    key: "dtype"
    value {
      type: DT_INT32
    }
  }
  attr {
    key: "value"
    value {
      tensor {
        dtype: DT_INT32
        tensor_shape {
        }
        int_val: 4
      }
    }
  }
}
node {
  name: "data/resize_image_with_crop_or_pad/pad_to_bounding_box/assert_greater_equal/y"
  op: "Const"
  attr {
    key: "dtype"
    value {
      type: DT_INT32
    }
  }
  attr {
    key: "value"
    value {
      tensor {
        dtype: DT_INT32
        tensor_shape {
        }
        int_val: 3
      }
    }
  }
}
node {
  name: "data/resize_image_with_crop_or_pad/pad_to_bounding_box/assert_greater_equal/GreaterEqual"
  op: "GreaterEqual"
  input: "data/resize_image_with_crop_or_pad/pad_to_bounding_box/Rank"
  input: "data/resize_image_with_crop_or_pad/pad_to_bounding_box/assert_greater_equal/y"
  attr {
    key: "T"
    value {
      type: DT_INT32
    }
  }
}
node {
  name: "data/resize_image_with_crop_or_pad/pad_to_bounding_box/assert_greater_equal/Rank"
  op: "Const"
  attr {
    key: "dtype"
    value {
      type: DT_INT32
    }
  }
  attr {
    key: "value"
    value {
      tensor {
        dtype: DT_INT32
        tensor_shape {
        }
        int_val: 0
      }
    }
  }
}
node {
  name: "data/resize_image_with_crop_or_pad/pad_to_bounding_box/assert_greater_equal/range/start"
  op: "Const"
  attr {
    key: "dtype"
    value {
      type: DT_INT32
    }
  }
  attr {
    key: "value"
    value {
      tensor {
        dtype: DT_INT32
        tensor_shape {
        }
        int_val: 0
      }
    }
  }
}
node {
  name: "data/resize_image_with_crop_or_pad/pad_to_bounding_box/assert_greater_equal/range/delta"
  op: "Const"
  attr {
    key: "dtype"
    value {
      type: DT_INT32
    }
  }
  attr {
    key: "value"
    value {
      tensor {
        dtype: DT_INT32
        tensor_shape {
        }
        int_val: 1
      }
    }
  }
}
node {
  name: "data/resize_image_with_crop_or_pad/pad_to_bounding_box/assert_greater_equal/range"
  op: "Range"
  input: "data/resize_image_with_crop_or_pad/pad_to_bounding_box/assert_greater_equal/range/start"
  input: "data/resize_image_with_crop_or_pad/pad_to_bounding_box/assert_greater_equal/Rank"
  input: "data/resize_image_with_crop_or_pad/pad_to_bounding_box/assert_greater_equal/range/delta"
  attr {
    key: "Tidx"
    value {
      type: DT_INT32
    }
  }
}
node {
  name: "data/resize_image_with_crop_or_pad/pad_to_bounding_box/assert_greater_equal/All"
  op: "All"
  input: "data/resize_image_with_crop_or_pad/pad_to_bounding_box/assert_greater_equal/GreaterEqual"
  input: "data/resize_image_with_crop_or_pad/pad_to_bounding_box/assert_greater_equal/range"
  attr {
    key: "Tidx"
    value {
      type: DT_INT32
    }
  }
  attr {
    key: "keep_dims"
    value {
      b: false
    }
  }
}
node {
  name: "data/resize_image_with_crop_or_pad/pad_to_bounding_box/assert_greater_equal/Assert/Const"
  op: "Const"
  attr {
    key: "dtype"
    value {
      type: DT_STRING
    }
  }
  attr {
    key: "value"
    value {
      tensor {
        dtype: DT_STRING
        tensor_shape {
        }
        string_val: "\'image\' must be at least three-dimensional."
      }
    }
  }
}
node {
  name: "data/resize_image_with_crop_or_pad/pad_to_bounding_box/assert_greater_equal/Assert/Const_1"
  op: "Const"
  attr {
    key: "dtype"
    value {
      type: DT_STRING
    }
  }
  attr {
    key: "value"
    value {
      tensor {
        dtype: DT_STRING
        tensor_shape {
        }
        string_val: "Condition x >= y did not hold element-wise:"
      }
    }
  }
}
node {
  name: "data/resize_image_with_crop_or_pad/pad_to_bounding_box/assert_greater_equal/Assert/Const_2"
  op: "Const"
  attr {
    key: "dtype"
    value {
      type: DT_STRING
    }
  }
  attr {
    key: "value"
    value {
      tensor {
        dtype: DT_STRING
        tensor_shape {
        }
        string_val: "x (data/resize_image_with_crop_or_pad/pad_to_bounding_box/Rank:0) = "
      }
    }
  }
}
node {
  name: "data/resize_image_with_crop_or_pad/pad_to_bounding_box/assert_greater_equal/Assert/Const_3"
  op: "Const"
  attr {
    key: "dtype"
    value {
      type: DT_STRING
    }
  }
  attr {
    key: "value"
    value {
      tensor {
        dtype: DT_STRING
        tensor_shape {
        }
        string_val: "y (data/resize_image_with_crop_or_pad/pad_to_bounding_box/assert_greater_equal/y:0) = "
      }
    }
  }
}
node {
  name: "data/resize_image_with_crop_or_pad/pad_to_bounding_box/assert_greater_equal/Assert/Assert/data_0"
  op: "Const"
  attr {
    key: "dtype"
    value {
      type: DT_STRING
    }
  }
  attr {
    key: "value"
    value {
      tensor {
        dtype: DT_STRING
        tensor_shape {
        }
        string_val: "\'image\' must be at least three-dimensional."
      }
    }
  }
}
node {
  name: "data/resize_image_with_crop_or_pad/pad_to_bounding_box/assert_greater_equal/Assert/Assert/data_1"
  op: "Const"
  attr {
    key: "dtype"
    value {
      type: DT_STRING
    }
  }
  attr {
    key: "value"
    value {
      tensor {
        dtype: DT_STRING
        tensor_shape {
        }
        string_val: "Condition x >= y did not hold element-wise:"
      }
    }
  }
}
node {
  name: "data/resize_image_with_crop_or_pad/pad_to_bounding_box/assert_greater_equal/Assert/Assert/data_2"
  op: "Const"
  attr {
    key: "dtype"
    value {
      type: DT_STRING
    }
  }
  attr {
    key: "value"
    value {
      tensor {
        dtype: DT_STRING
        tensor_shape {
        }
        string_val: "x (data/resize_image_with_crop_or_pad/pad_to_bounding_box/Rank:0) = "
      }
    }
  }
}
node {
  name: "data/resize_image_with_crop_or_pad/pad_to_bounding_box/assert_greater_equal/Assert/Assert/data_4"
  op: "Const"
  attr {
    key: "dtype"
    value {
      type: DT_STRING
    }
  }
  attr {
    key: "value"
    value {
      tensor {
        dtype: DT_STRING
        tensor_shape {
        }
        string_val: "y (data/resize_image_with_crop_or_pad/pad_to_bounding_box/assert_greater_equal/y:0) = "
      }
    }
  }
}
node {
  name: "data/resize_image_with_crop_or_pad/pad_to_bounding_box/assert_greater_equal/Assert/Assert"
  op: "Assert"
  input: "data/resize_image_with_crop_or_pad/pad_to_bounding_box/assert_greater_equal/All"
  input: "data/resize_image_with_crop_or_pad/pad_to_bounding_box/assert_greater_equal/Assert/Assert/data_0"
  input: "data/resize_image_with_crop_or_pad/pad_to_bounding_box/assert_greater_equal/Assert/Assert/data_1"
  input: "data/resize_image_with_crop_or_pad/pad_to_bounding_box/assert_greater_equal/Assert/Assert/data_2"
  input: "data/resize_image_with_crop_or_pad/pad_to_bounding_box/Rank"
  input: "data/resize_image_with_crop_or_pad/pad_to_bounding_box/assert_greater_equal/Assert/Assert/data_4"
  input: "data/resize_image_with_crop_or_pad/pad_to_bounding_box/assert_greater_equal/y"
  attr {
    key: "T"
    value {
      list {
        type: DT_STRING
        type: DT_STRING
        type: DT_STRING
        type: DT_INT32
        type: DT_STRING
        type: DT_INT32
      }
    }
  }
  attr {
    key: "summarize"
    value {
      i: 3
    }
  }
}
node {
  name: "data/resize_image_with_crop_or_pad/pad_to_bounding_box/Shape_1"
  op: "Shape"
  input: "data/resize_image_with_crop_or_pad/crop_to_bounding_box/Slice"
  attr {
    key: "T"
    value {
      type: DT_FLOAT
    }
  }
  attr {
    key: "out_type"
    value {
      type: DT_INT32
    }
  }
}
node {
  name: "data/resize_image_with_crop_or_pad/pad_to_bounding_box/unstack"
  op: "Unpack"
  input: "data/resize_image_with_crop_or_pad/pad_to_bounding_box/Shape_1"
  attr {
    key: "T"
    value {
      type: DT_INT32
    }
  }
  attr {
    key: "axis"
    value {
      i: 0
    }
  }
  attr {
    key: "num"
    value {
      i: 4
    }
  }
}
node {
  name: "data/resize_image_with_crop_or_pad/pad_to_bounding_box/sub/x"
  op: "Const"
  attr {
    key: "dtype"
    value {
      type: DT_INT32
    }
  }
  attr {
    key: "value"
    value {
      tensor {
        dtype: DT_INT32
        tensor_shape {
        }
        int_val: 16000
      }
    }
  }
}
node {
  name: "data/resize_image_with_crop_or_pad/pad_to_bounding_box/sub"
  op: "Sub"
  input: "data/resize_image_with_crop_or_pad/pad_to_bounding_box/sub/x"
  input: "data/resize_image_with_crop_or_pad/Maximum_1"
  attr {
    key: "T"
    value {
      type: DT_INT32
    }
  }
}
node {
  name: "data/resize_image_with_crop_or_pad/pad_to_bounding_box/sub_1"
  op: "Sub"
  input: "data/resize_image_with_crop_or_pad/pad_to_bounding_box/sub"
  input: "data/resize_image_with_crop_or_pad/pad_to_bounding_box/unstack:1"
  attr {
    key: "T"
    value {
      type: DT_INT32
    }
  }
}
node {
  name: "data/resize_image_with_crop_or_pad/pad_to_bounding_box/GreaterEqual/y"
  op: "Const"
  attr {
    key: "dtype"
    value {
      type: DT_INT32
    }
  }
  attr {
    key: "value"
    value {
      tensor {
        dtype: DT_INT32
        tensor_shape {
        }
        int_val: 0
      }
    }
  }
}
node {
  name: "data/resize_image_with_crop_or_pad/pad_to_bounding_box/GreaterEqual"
  op: "GreaterEqual"
  input: "data/resize_image_with_crop_or_pad/Maximum_1"
  input: "data/resize_image_with_crop_or_pad/pad_to_bounding_box/GreaterEqual/y"
  attr {
    key: "T"
    value {
      type: DT_INT32
    }
  }
}
node {
  name: "data/resize_image_with_crop_or_pad/pad_to_bounding_box/Assert/Const"
  op: "Const"
  attr {
    key: "dtype"
    value {
      type: DT_STRING
    }
  }
  attr {
    key: "value"
    value {
      tensor {
        dtype: DT_STRING
        tensor_shape {
        }
        string_val: "offset_height must be >= 0"
      }
    }
  }
}
node {
  name: "data/resize_image_with_crop_or_pad/pad_to_bounding_box/Assert/Assert/data_0"
  op: "Const"
  attr {
    key: "dtype"
    value {
      type: DT_STRING
    }
  }
  attr {
    key: "value"
    value {
      tensor {
        dtype: DT_STRING
        tensor_shape {
        }
        string_val: "offset_height must be >= 0"
      }
    }
  }
}
node {
  name: "data/resize_image_with_crop_or_pad/pad_to_bounding_box/Assert/Assert"
  op: "Assert"
  input: "data/resize_image_with_crop_or_pad/pad_to_bounding_box/GreaterEqual"
  input: "data/resize_image_with_crop_or_pad/pad_to_bounding_box/Assert/Assert/data_0"
  attr {
    key: "T"
    value {
      list {
        type: DT_STRING
      }
    }
  }
  attr {
    key: "summarize"
    value {
      i: 3
    }
  }
}
node {
  name: "data/resize_image_with_crop_or_pad/pad_to_bounding_box/GreaterEqual_1/y"
  op: "Const"
  attr {
    key: "dtype"
    value {
      type: DT_INT32
    }
  }
  attr {
    key: "value"
    value {
      tensor {
        dtype: DT_INT32
        tensor_shape {
        }
        int_val: 0
      }
    }
  }
}
node {
  name: "data/resize_image_with_crop_or_pad/pad_to_bounding_box/GreaterEqual_1"
  op: "GreaterEqual"
  input: "data/resize_image_with_crop_or_pad/pad_to_bounding_box/sub_1"
  input: "data/resize_image_with_crop_or_pad/pad_to_bounding_box/GreaterEqual_1/y"
  attr {
    key: "T"
    value {
      type: DT_INT32
    }
  }
}
node {
  name: "data/resize_image_with_crop_or_pad/pad_to_bounding_box/Assert_1/Const"
  op: "Const"
  attr {
    key: "dtype"
    value {
      type: DT_STRING
    }
  }
  attr {
    key: "value"
    value {
      tensor {
        dtype: DT_STRING
        tensor_shape {
        }
        string_val: "height must be <= target - offset"
      }
    }
  }
}
node {
  name: "data/resize_image_with_crop_or_pad/pad_to_bounding_box/Assert_1/Assert/data_0"
  op: "Const"
  attr {
    key: "dtype"
    value {
      type: DT_STRING
    }
  }
  attr {
    key: "value"
    value {
      tensor {
        dtype: DT_STRING
        tensor_shape {
        }
        string_val: "height must be <= target - offset"
      }
    }
  }
}
node {
  name: "data/resize_image_with_crop_or_pad/pad_to_bounding_box/Assert_1/Assert"
  op: "Assert"
  input: "data/resize_image_with_crop_or_pad/pad_to_bounding_box/GreaterEqual_1"
  input: "data/resize_image_with_crop_or_pad/pad_to_bounding_box/Assert_1/Assert/data_0"
  attr {
    key: "T"
    value {
      list {
        type: DT_STRING
      }
    }
  }
  attr {
    key: "summarize"
    value {
      i: 3
    }
  }
}
node {
  name: "data/resize_image_with_crop_or_pad/pad_to_bounding_box/control_dependency"
  op: "Identity"
  input: "data/resize_image_with_crop_or_pad/crop_to_bounding_box/Slice"
  input: "^data/resize_image_with_crop_or_pad/pad_to_bounding_box/Assert/Assert"
  input: "^data/resize_image_with_crop_or_pad/pad_to_bounding_box/Assert_1/Assert"
  input: "^data/resize_image_with_crop_or_pad/pad_to_bounding_box/assert_greater_equal/Assert/Assert"
  input: "^data/resize_image_with_crop_or_pad/pad_to_bounding_box/assert_positive/assert_less/Assert/Assert"
  attr {
    key: "T"
    value {
      type: DT_FLOAT
    }
  }
  attr {
    key: "_class"
    value {
      list {
        s: "loc:@data/resize_image_with_crop_or_pad/crop_to_bounding_box/Slice"
      }
    }
  }
}
node {
  name: "data/resize_image_with_crop_or_pad/pad_to_bounding_box/stack/0"
  op: "Const"
  attr {
    key: "dtype"
    value {
      type: DT_INT32
    }
  }
  attr {
    key: "value"
    value {
      tensor {
        dtype: DT_INT32
        tensor_shape {
        }
        int_val: 0
      }
    }
  }
}
node {
  name: "data/resize_image_with_crop_or_pad/pad_to_bounding_box/stack/1"
  op: "Const"
  attr {
    key: "dtype"
    value {
      type: DT_INT32
    }
  }
  attr {
    key: "value"
    value {
      tensor {
        dtype: DT_INT32
        tensor_shape {
        }
        int_val: 0
      }
    }
  }
}
node {
  name: "data/resize_image_with_crop_or_pad/pad_to_bounding_box/stack/4"
  op: "Const"
  attr {
    key: "dtype"
    value {
      type: DT_INT32
    }
  }
  attr {
    key: "value"
    value {
      tensor {
        dtype: DT_INT32
        tensor_shape {
        }
        int_val: 0
      }
    }
  }
}
node {
  name: "data/resize_image_with_crop_or_pad/pad_to_bounding_box/stack/5"
  op: "Const"
  attr {
    key: "dtype"
    value {
      type: DT_INT32
    }
  }
  attr {
    key: "value"
    value {
      tensor {
        dtype: DT_INT32
        tensor_shape {
        }
        int_val: 0
      }
    }
  }
}
node {
  name: "data/resize_image_with_crop_or_pad/pad_to_bounding_box/stack/6"
  op: "Const"
  attr {
    key: "dtype"
    value {
      type: DT_INT32
    }
  }
  attr {
    key: "value"
    value {
      tensor {
        dtype: DT_INT32
        tensor_shape {
        }
        int_val: 0
      }
    }
  }
}
node {
  name: "data/resize_image_with_crop_or_pad/pad_to_bounding_box/stack/7"
  op: "Const"
  attr {
    key: "dtype"
    value {
      type: DT_INT32
    }
  }
  attr {
    key: "value"
    value {
      tensor {
        dtype: DT_INT32
        tensor_shape {
        }
        int_val: 0
      }
    }
  }
}
node {
  name: "data/resize_image_with_crop_or_pad/pad_to_bounding_box/stack"
  op: "Pack"
  input: "data/resize_image_with_crop_or_pad/pad_to_bounding_box/stack/0"
  input: "data/resize_image_with_crop_or_pad/pad_to_bounding_box/stack/1"
  input: "data/resize_image_with_crop_or_pad/Maximum_1"
  input: "data/resize_image_with_crop_or_pad/pad_to_bounding_box/sub_1"
  input: "data/resize_image_with_crop_or_pad/pad_to_bounding_box/stack/4"
  input: "data/resize_image_with_crop_or_pad/pad_to_bounding_box/stack/5"
  input: "data/resize_image_with_crop_or_pad/pad_to_bounding_box/stack/6"
  input: "data/resize_image_with_crop_or_pad/pad_to_bounding_box/stack/7"
  attr {
    key: "N"
    value {
      i: 8
    }
  }
  attr {
    key: "T"
    value {
      type: DT_INT32
    }
  }
  attr {
    key: "axis"
    value {
      i: 0
    }
  }
}
node {
  name: "data/resize_image_with_crop_or_pad/pad_to_bounding_box/Reshape/shape"
  op: "Const"
  attr {
    key: "dtype"
    value {
      type: DT_INT32
    }
  }
  attr {
    key: "value"
    value {
      tensor {
        dtype: DT_INT32
        tensor_shape {
          dim {
            size: 2
          }
        }
        tensor_content: "\004\000\000\000\002\000\000\000"
      }
    }
  }
}
node {
  name: "data/resize_image_with_crop_or_pad/pad_to_bounding_box/Reshape"
  op: "Reshape"
  input: "data/resize_image_with_crop_or_pad/pad_to_bounding_box/stack"
  input: "data/resize_image_with_crop_or_pad/pad_to_bounding_box/Reshape/shape"
  attr {
    key: "T"
    value {
      type: DT_INT32
    }
  }
  attr {
    key: "Tshape"
    value {
      type: DT_INT32
    }
  }
}
node {
  name: "data/resize_image_with_crop_or_pad/pad_to_bounding_box/Pad"
  op: "Pad"
  input: "data/resize_image_with_crop_or_pad/pad_to_bounding_box/control_dependency"
  input: "data/resize_image_with_crop_or_pad/pad_to_bounding_box/Reshape"
  attr {
    key: "T"
    value {
      type: DT_FLOAT
    }
  }
  attr {
    key: "Tpaddings"
    value {
      type: DT_INT32
    }
  }
}
node {
  name: "data/resize_image_with_crop_or_pad/control_dependency_1"
  op: "Identity"
  input: "data/resize_image_with_crop_or_pad/pad_to_bounding_box/Pad"
  attr {
    key: "T"
    value {
      type: DT_FLOAT
    }
  }
  attr {
    key: "_class"
    value {
      list {
        s: "loc:@data/resize_image_with_crop_or_pad/pad_to_bounding_box/Pad"
      }
    }
  }
}
node {
  name: "data/Squeeze"
  op: "Squeeze"
  input: "data/resize_image_with_crop_or_pad/control_dependency_1"
  attr {
    key: "T"
    value {
      type: DT_FLOAT
    }
  }
  attr {
    key: "squeeze_dims"
    value {
      list {
        i: 0
        i: 3
      }
    }
  }
}
node {
  name: "data/Mul_1"
  op: "Mul"
  input: "data/Squeeze"
  input: "data/foreground_volume"
  attr {
    key: "T"
    value {
      type: DT_FLOAT
    }
  }
}
node {
  name: "data/time_shift_padding"
  op: "Placeholder"
  attr {
    key: "dtype"
    value {
      type: DT_INT32
    }
  }
  attr {
    key: "shape"
    value {
      shape {
        dim {
          size: 2
        }
        dim {
          size: 2
        }
      }
    }
  }
}
node {
  name: "data/time_shift_offset"
  op: "Placeholder"
  attr {
    key: "dtype"
    value {
      type: DT_INT32
    }
  }
  attr {
    key: "shape"
    value {
      shape {
        dim {
          size: 2
        }
      }
    }
  }
}
node {
  name: "data/Pad"
  op: "Pad"
  input: "data/Mul_1"
  input: "data/time_shift_padding"
  attr {
    key: "T"
    value {
      type: DT_FLOAT
    }
  }
  attr {
    key: "Tpaddings"
    value {
      type: DT_INT32
    }
  }
}
node {
  name: "data/Slice/size"
  op: "Const"
  attr {
    key: "dtype"
    value {
      type: DT_INT32
    }
  }
  attr {
    key: "value"
    value {
      tensor {
        dtype: DT_INT32
        tensor_shape {
          dim {
            size: 2
          }
        }
        tensor_content: "\200>\000\000\377\377\377\377"
      }
    }
  }
}
node {
  name: "data/Slice"
  op: "Slice"
  input: "data/Pad"
  input: "data/time_shift_offset"
  input: "data/Slice/size"
  attr {
    key: "Index"
    value {
      type: DT_INT32
    }
  }
  attr {
    key: "T"
    value {
      type: DT_FLOAT
    }
  }
}
node {
  name: "data/background_data"
  op: "Placeholder"
  attr {
    key: "dtype"
    value {
      type: DT_FLOAT
    }
  }
  attr {
    key: "shape"
    value {
      shape {
        dim {
          size: 16000
        }
        dim {
          size: 1
        }
      }
    }
  }
}
node {
  name: "data/background_volume"
  op: "Placeholder"
  attr {
    key: "dtype"
    value {
      type: DT_FLOAT
    }
  }
  attr {
    key: "shape"
    value {
      shape {
      }
    }
  }
}
node {
  name: "data/Mul_2"
  op: "Mul"
  input: "data/background_data"
  input: "data/background_volume"
  attr {
    key: "T"
    value {
      type: DT_FLOAT
    }
  }
}
node {
  name: "data/Add"
  op: "AddV2"
  input: "data/Mul_2"
  input: "data/Slice"
  attr {
    key: "T"
    value {
      type: DT_FLOAT
    }
  }
}
node {
  name: "data/clip_by_value/Minimum/y"
  op: "Const"
  attr {
    key: "dtype"
    value {
      type: DT_FLOAT
    }
  }
  attr {
    key: "value"
    value {
      tensor {
        dtype: DT_FLOAT
        tensor_shape {
        }
        float_val: 1.0
      }
    }
  }
}
node {
  name: "data/clip_by_value/Minimum"
  op: "Minimum"
  input: "data/Add"
  input: "data/clip_by_value/Minimum/y"
  attr {
    key: "T"
    value {
      type: DT_FLOAT
    }
  }
}
node {
  name: "data/clip_by_value/y"
  op: "Const"
  attr {
    key: "dtype"
    value {
      type: DT_FLOAT
    }
  }
  attr {
    key: "value"
    value {
      tensor {
        dtype: DT_FLOAT
        tensor_shape {
        }
        float_val: -1.0
      }
    }
  }
}
node {
  name: "data/clip_by_value"
  op: "Maximum"
  input: "data/clip_by_value/Minimum"
  input: "data/clip_by_value/y"
  attr {
    key: "T"
    value {
      type: DT_FLOAT
    }
  }
}
node {
  name: "data/Squeeze_1"
  op: "Squeeze"
  input: "data/clip_by_value"
  attr {
    key: "T"
    value {
      type: DT_FLOAT
    }
  }
  attr {
    key: "squeeze_dims"
    value {
      list {
        i: 1
      }
    }
  }
}
node {
  name: "input_1"
  op: "Placeholder"
  attr {
    key: "dtype"
    value {
      type: DT_FLOAT
    }
  }
  attr {
    key: "shape"
    value {
      shape {
        dim {
          size: 1
        }
        dim {
          size: 16000
        }
      }
    }
  }
}
node {
  name: "speech_features/lambda_1/lambda_1/Identity"
  op: "Identity"
  input: "input_1"
  attr {
    key: "T"
    value {
      type: DT_FLOAT
    }
  }
}
node {
  name: "speech_features/lambda/lambda/Identity"
  op: "Identity"
  input: "speech_features/lambda_1/lambda_1/Identity"
  attr {
    key: "T"
    value {
      type: DT_FLOAT
    }
  }
}
node {
  name: "speech_features/data_frame/lambda_2/lambda_2/Identity"
  op: "Identity"
  input: "speech_features/lambda/lambda/Identity"
  attr {
    key: "T"
    value {
      type: DT_FLOAT
    }
  }
}
node {
  name: "speech_features/data_frame/frame/frame_length"
  op: "Const"
  attr {
    key: "dtype"
    value {
      type: DT_INT32
    }
  }
  attr {
    key: "value"
    value {
      tensor {
        dtype: DT_INT32
        tensor_shape {
        }
        int_val: 160
      }
    }
  }
}
node {
  name: "speech_features/data_frame/frame/frame_step"
  op: "Const"
  attr {
    key: "dtype"
    value {
      type: DT_INT32
    }
  }
  attr {
    key: "value"
    value {
      tensor {
        dtype: DT_INT32
        tensor_shape {
        }
        int_val: 160
      }
    }
  }
}
node {
  name: "speech_features/data_frame/frame/axis"
  op: "Const"
  attr {
    key: "dtype"
    value {
      type: DT_INT32
    }
  }
  attr {
    key: "value"
    value {
      tensor {
        dtype: DT_INT32
        tensor_shape {
        }
        int_val: -1
      }
    }
  }
}
node {
  name: "speech_features/data_frame/frame/Shape"
  op: "Const"
  attr {
    key: "dtype"
    value {
      type: DT_INT32
    }
  }
  attr {
    key: "value"
    value {
      tensor {
        dtype: DT_INT32
        tensor_shape {
          dim {
            size: 2
          }
        }
        tensor_content: "\001\000\000\000\200>\000\000"
      }
    }
  }
}
node {
  name: "speech_features/data_frame/frame/Size/Const"
  op: "Const"
  attr {
    key: "dtype"
    value {
      type: DT_INT32
    }
  }
  attr {
    key: "value"
    value {
      tensor {
        dtype: DT_INT32
        tensor_shape {
          dim {
            size: 1
          }
        }
        int_val: 1
      }
    }
  }
}
node {
  name: "speech_features/data_frame/frame/Size"
  op: "Const"
  attr {
    key: "dtype"
    value {
      type: DT_INT32
    }
  }
  attr {
    key: "value"
    value {
      tensor {
        dtype: DT_INT32
        tensor_shape {
        }
        int_val: 1
      }
    }
  }
}
node {
  name: "speech_features/data_frame/frame/Size_1/Const"
  op: "Const"
  attr {
    key: "dtype"
    value {
      type: DT_INT32
    }
  }
  attr {
    key: "value"
    value {
      tensor {
        dtype: DT_INT32
        tensor_shape {
          dim {
          }
        }
      }
    }
  }
}
node {
  name: "speech_features/data_frame/frame/Size_1"
  op: "Const"
  attr {
    key: "dtype"
    value {
      type: DT_INT32
    }
  }
  attr {
    key: "value"
    value {
      tensor {
        dtype: DT_INT32
        tensor_shape {
        }
        int_val: 0
      }
    }
  }
}
node {
  name: "speech_features/data_frame/frame/sub/x"
  op: "Const"
  attr {
    key: "dtype"
    value {
      type: DT_INT32
    }
  }
  attr {
    key: "value"
    value {
      tensor {
        dtype: DT_INT32
        tensor_shape {
        }
        int_val: 16000
      }
    }
  }
}
node {
  name: "speech_features/data_frame/frame/sub"
  op: "Sub"
  input: "speech_features/data_frame/frame/sub/x"
  input: "speech_features/data_frame/frame/frame_length"
  attr {
    key: "T"
    value {
      type: DT_INT32
    }
  }
}
node {
  name: "speech_features/data_frame/frame/floordiv"
  op: "FloorDiv"
  input: "speech_features/data_frame/frame/sub"
  input: "speech_features/data_frame/frame/frame_step"
  attr {
    key: "T"
    value {
      type: DT_INT32
    }
  }
}
node {
  name: "speech_features/data_frame/frame/add/x"
  op: "Const"
  attr {
    key: "dtype"
    value {
      type: DT_INT32
    }
  }
  attr {
    key: "value"
    value {
      tensor {
        dtype: DT_INT32
        tensor_shape {
        }
        int_val: 1
      }
    }
  }
}
node {
  name: "speech_features/data_frame/frame/add"
  op: "AddV2"
  input: "speech_features/data_frame/frame/add/x"
  input: "speech_features/data_frame/frame/floordiv"
  attr {
    key: "T"
    value {
      type: DT_INT32
    }
  }
}
node {
  name: "speech_features/data_frame/frame/Maximum/x"
  op: "Const"
  attr {
    key: "dtype"
    value {
      type: DT_INT32
    }
  }
  attr {
    key: "value"
    value {
      tensor {
        dtype: DT_INT32
        tensor_shape {
        }
        int_val: 0
      }
    }
  }
}
node {
  name: "speech_features/data_frame/frame/Maximum"
  op: "Maximum"
  input: "speech_features/data_frame/frame/Maximum/x"
  input: "speech_features/data_frame/frame/add"
  attr {
    key: "T"
    value {
      type: DT_INT32
    }
  }
}
node {
  name: "speech_features/data_frame/frame/gcd/Const"
  op: "Const"
  attr {
    key: "dtype"
    value {
      type: DT_INT32
    }
  }
  attr {
    key: "value"
    value {
      tensor {
        dtype: DT_INT32
        tensor_shape {
        }
        int_val: 160
      }
    }
  }
}
node {
  name: "speech_features/data_frame/frame/floordiv_1/y"
  op: "Const"
  attr {
    key: "dtype"
    value {
      type: DT_INT32
    }
  }
  attr {
    key: "value"
    value {
      tensor {
        dtype: DT_INT32
        tensor_shape {
        }
        int_val: 160
      }
    }
  }
}
node {
  name: "speech_features/data_frame/frame/floordiv_1"
  op: "FloorDiv"
  input: "speech_features/data_frame/frame/frame_length"
  input: "speech_features/data_frame/frame/floordiv_1/y"
  attr {
    key: "T"
    value {
      type: DT_INT32
    }
  }
}
node {
  name: "speech_features/data_frame/frame/floordiv_2/y"
  op: "Const"
  attr {
    key: "dtype"
    value {
      type: DT_INT32
    }
  }
  attr {
    key: "value"
    value {
      tensor {
        dtype: DT_INT32
        tensor_shape {
        }
        int_val: 160
      }
    }
  }
}
node {
  name: "speech_features/data_frame/frame/floordiv_2"
  op: "FloorDiv"
  input: "speech_features/data_frame/frame/frame_step"
  input: "speech_features/data_frame/frame/floordiv_2/y"
  attr {
    key: "T"
    value {
      type: DT_INT32
    }
  }
}
node {
  name: "speech_features/data_frame/frame/concat/values_0"
  op: "Const"
  attr {
    key: "dtype"
    value {
      type: DT_INT32
    }
  }
  attr {
    key: "value"
    value {
      tensor {
        dtype: DT_INT32
        tensor_shape {
          dim {
            size: 1
          }
        }
        int_val: 1
      }
    }
  }
}
node {
  name: "speech_features/data_frame/frame/concat/values_1"
  op: "Const"
  attr {
    key: "dtype"
    value {
      type: DT_INT32
    }
  }
  attr {
    key: "value"
    value {
      tensor {
        dtype: DT_INT32
        tensor_shape {
          dim {
            size: 1
          }
        }
        int_val: 16000
      }
    }
  }
}
node {
  name: "speech_features/data_frame/frame/concat/values_2"
  op: "Const"
  attr {
    key: "dtype"
    value {
      type: DT_INT32
    }
  }
  attr {
    key: "value"
    value {
      tensor {
        dtype: DT_INT32
        tensor_shape {
          dim {
          }
        }
      }
    }
  }
}
node {
  name: "speech_features/data_frame/frame/concat/axis"
  op: "Const"
  attr {
    key: "dtype"
    value {
      type: DT_INT32
    }
  }
  attr {
    key: "value"
    value {
      tensor {
        dtype: DT_INT32
        tensor_shape {
        }
        int_val: 0
      }
    }
  }
}
node {
  name: "speech_features/data_frame/frame/concat"
  op: "ConcatV2"
  input: "speech_features/data_frame/frame/concat/values_0"
  input: "speech_features/data_frame/frame/concat/values_1"
  input: "speech_features/data_frame/frame/concat/values_2"
  input: "speech_features/data_frame/frame/concat/axis"
  attr {
    key: "N"
    value {
      i: 3
    }
  }
  attr {
    key: "T"
    value {
      type: DT_INT32
    }
  }
  attr {
    key: "Tidx"
    value {
      type: DT_INT32
    }
  }
}
node {
  name: "speech_features/data_frame/frame/concat_1/values_0"
  op: "Const"
  attr {
    key: "dtype"
    value {
      type: DT_INT32
    }
  }
  attr {
    key: "value"
    value {
      tensor {
        dtype: DT_INT32
        tensor_shape {
          dim {
            size: 1
          }
        }
        int_val: 1
      }
    }
  }
}
node {
  name: "speech_features/data_frame/frame/concat_1/values_1"
  op: "Const"
  attr {
    key: "dtype"
    value {
      type: DT_INT32
    }
  }
  attr {
    key: "value"
    value {
      tensor {
        dtype: DT_INT32
        tensor_shape {
          dim {
            size: 2
          }
        }
        tensor_content: "d\000\000\000\240\000\000\000"
      }
    }
  }
}
node {
  name: "speech_features/data_frame/frame/concat_1/values_2"
  op: "Const"
  attr {
    key: "dtype"
    value {
      type: DT_INT32
    }
  }
  attr {
    key: "value"
    value {
      tensor {
        dtype: DT_INT32
        tensor_shape {
          dim {
          }
        }
      }
    }
  }
}
node {
  name: "speech_features/data_frame/frame/concat_1/axis"
  op: "Const"
  attr {
    key: "dtype"
    value {
      type: DT_INT32
    }
  }
  attr {
    key: "value"
    value {
      tensor {
        dtype: DT_INT32
        tensor_shape {
        }
        int_val: 0
      }
    }
  }
}
node {
  name: "speech_features/data_frame/frame/concat_1"
  op: "ConcatV2"
  input: "speech_features/data_frame/frame/concat_1/values_0"
  input: "speech_features/data_frame/frame/concat_1/values_1"
  input: "speech_features/data_frame/frame/concat_1/values_2"
  input: "speech_features/data_frame/frame/concat_1/axis"
  attr {
    key: "N"
    value {
      i: 3
    }
  }
  attr {
    key: "T"
    value {
      type: DT_INT32
    }
  }
  attr {
    key: "Tidx"
    value {
      type: DT_INT32
    }
  }
}
node {
  name: "speech_features/data_frame/frame/zeros_like/tensor"
  op: "Const"
  attr {
    key: "dtype"
    value {
      type: DT_INT32
    }
  }
  attr {
    key: "value"
    value {
      tensor {
        dtype: DT_INT32
        tensor_shape {
          dim {
            size: 2
          }
        }
        tensor_content: "\001\000\000\000\200>\000\000"
      }
    }
  }
}
node {
  name: "speech_features/data_frame/frame/zeros_like"
  op: "Const"
  attr {
    key: "dtype"
    value {
      type: DT_INT32
    }
  }
  attr {
    key: "value"
    value {
      tensor {
        dtype: DT_INT32
        tensor_shape {
          dim {
            size: 2
          }
        }
        int_val: 0
      }
    }
  }
}
node {
  name: "speech_features/data_frame/frame/ones_like/Shape"
  op: "Const"
  attr {
    key: "dtype"
    value {
      type: DT_INT32
    }
  }
  attr {
    key: "value"
    value {
      tensor {
        dtype: DT_INT32
        tensor_shape {
          dim {
            size: 1
          }
        }
        int_val: 2
      }
    }
  }
}
node {
  name: "speech_features/data_frame/frame/ones_like/Const"
  op: "Const"
  attr {
    key: "dtype"
    value {
      type: DT_INT32
    }
  }
  attr {
    key: "value"
    value {
      tensor {
        dtype: DT_INT32
        tensor_shape {
        }
        int_val: 1
      }
    }
  }
}
node {
  name: "speech_features/data_frame/frame/ones_like"
  op: "Fill"
  input: "speech_features/data_frame/frame/ones_like/Shape"
  input: "speech_features/data_frame/frame/ones_like/Const"
  attr {
    key: "T"
    value {
      type: DT_INT32
    }
  }
  attr {
    key: "index_type"
    value {
      type: DT_INT32
    }
  }
}
node {
  name: "speech_features/data_frame/frame/StridedSlice"
  op: "StridedSlice"
  input: "speech_features/data_frame/lambda_2/lambda_2/Identity"
  input: "speech_features/data_frame/frame/zeros_like"
  input: "speech_features/data_frame/frame/concat"
  input: "speech_features/data_frame/frame/ones_like"
  attr {
    key: "Index"
    value {
      type: DT_INT32
    }
  }
  attr {
    key: "T"
    value {
      type: DT_FLOAT
    }
  }
  attr {
    key: "begin_mask"
    value {
      i: 0
    }
  }
  attr {
    key: "ellipsis_mask"
    value {
      i: 0
    }
  }
  attr {
    key: "end_mask"
    value {
      i: 0
    }
  }
  attr {
    key: "new_axis_mask"
    value {
      i: 0
    }
  }
  attr {
    key: "shrink_axis_mask"
    value {
      i: 0
    }
  }
}
node {
  name: "speech_features/data_frame/frame/Reshape"
  op: "Reshape"
  input: "speech_features/data_frame/frame/StridedSlice"
  input: "speech_features/data_frame/frame/concat_1"
  attr {
    key: "T"
    value {
      type: DT_FLOAT
    }
  }
  attr {
    key: "Tshape"
    value {
      type: DT_INT32
    }
  }
}
node {
  name: "speech_features/data_frame/frame/range/start"
  op: "Const"
  attr {
    key: "dtype"
    value {
      type: DT_INT32
    }
  }
  attr {
    key: "value"
    value {
      tensor {
        dtype: DT_INT32
        tensor_shape {
        }
        int_val: 0
      }
    }
  }
}
node {
  name: "speech_features/data_frame/frame/range/delta"
  op: "Const"
  attr {
    key: "dtype"
    value {
      type: DT_INT32
    }
  }
  attr {
    key: "value"
    value {
      tensor {
        dtype: DT_INT32
        tensor_shape {
        }
        int_val: 1
      }
    }
  }
}
node {
  name: "speech_features/data_frame/frame/range"
  op: "Range"
  input: "speech_features/data_frame/frame/range/start"
  input: "speech_features/data_frame/frame/Maximum"
  input: "speech_features/data_frame/frame/range/delta"
  attr {
    key: "Tidx"
    value {
      type: DT_INT32
    }
  }
}
node {
  name: "speech_features/data_frame/frame/mul"
  op: "Mul"
  input: "speech_features/data_frame/frame/range"
  input: "speech_features/data_frame/frame/floordiv_2"
  attr {
    key: "T"
    value {
      type: DT_INT32
    }
  }
}
node {
  name: "speech_features/data_frame/frame/Reshape_1/shape/1"
  op: "Const"
  attr {
    key: "dtype"
    value {
      type: DT_INT32
    }
  }
  attr {
    key: "value"
    value {
      tensor {
        dtype: DT_INT32
        tensor_shape {
        }
        int_val: 1
      }
    }
  }
}
node {
  name: "speech_features/data_frame/frame/Reshape_1/shape"
  op: "Pack"
  input: "speech_features/data_frame/frame/Maximum"
  input: "speech_features/data_frame/frame/Reshape_1/shape/1"
  attr {
    key: "N"
    value {
      i: 2
    }
  }
  attr {
    key: "T"
    value {
      type: DT_INT32
    }
  }
  attr {
    key: "axis"
    value {
      i: 0
    }
  }
}
node {
  name: "speech_features/data_frame/frame/Reshape_1"
  op: "Reshape"
  input: "speech_features/data_frame/frame/mul"
  input: "speech_features/data_frame/frame/Reshape_1/shape"
  attr {
    key: "T"
    value {
      type: DT_INT32
    }
  }
  attr {
    key: "Tshape"
    value {
      type: DT_INT32
    }
  }
}
node {
  name: "speech_features/data_frame/frame/range_1/start"
  op: "Const"
  attr {
    key: "dtype"
    value {
      type: DT_INT32
    }
  }
  attr {
    key: "value"
    value {
      tensor {
        dtype: DT_INT32
        tensor_shape {
        }
        int_val: 0
      }
    }
  }
}
node {
  name: "speech_features/data_frame/frame/range_1/delta"
  op: "Const"
  attr {
    key: "dtype"
    value {
      type: DT_INT32
    }
  }
  attr {
    key: "value"
    value {
      tensor {
        dtype: DT_INT32
        tensor_shape {
        }
        int_val: 1
      }
    }
  }
}
node {
  name: "speech_features/data_frame/frame/range_1"
  op: "Range"
  input: "speech_features/data_frame/frame/range_1/start"
  input: "speech_features/data_frame/frame/floordiv_1"
  input: "speech_features/data_frame/frame/range_1/delta"
  attr {
    key: "Tidx"
    value {
      type: DT_INT32
    }
  }
}
node {
  name: "speech_features/data_frame/frame/Reshape_2/shape/0"
  op: "Const"
  attr {
    key: "dtype"
    value {
      type: DT_INT32
    }
  }
  attr {
    key: "value"
    value {
      tensor {
        dtype: DT_INT32
        tensor_shape {
        }
        int_val: 1
      }
    }
  }
}
node {
  name: "speech_features/data_frame/frame/Reshape_2/shape"
  op: "Pack"
  input: "speech_features/data_frame/frame/Reshape_2/shape/0"
  input: "speech_features/data_frame/frame/floordiv_1"
  attr {
    key: "N"
    value {
      i: 2
    }
  }
  attr {
    key: "T"
    value {
      type: DT_INT32
    }
  }
  attr {
    key: "axis"
    value {
      i: 0
    }
  }
}
node {
  name: "speech_features/data_frame/frame/Reshape_2"
  op: "Reshape"
  input: "speech_features/data_frame/frame/range_1"
  input: "speech_features/data_frame/frame/Reshape_2/shape"
  attr {
    key: "T"
    value {
      type: DT_INT32
    }
  }
  attr {
    key: "Tshape"
    value {
      type: DT_INT32
    }
  }
}
node {
  name: "speech_features/data_frame/frame/add_1"
  op: "AddV2"
  input: "speech_features/data_frame/frame/Reshape_1"
  input: "speech_features/data_frame/frame/Reshape_2"
  attr {
    key: "T"
    value {
      type: DT_INT32
    }
  }
}
node {
  name: "speech_features/data_frame/frame/GatherV2/axis"
  op: "Const"
  attr {
    key: "dtype"
    value {
      type: DT_INT32
    }
  }
  attr {
    key: "value"
    value {
      tensor {
        dtype: DT_INT32
        tensor_shape {
        }
        int_val: 1
      }
    }
  }
}
node {
  name: "speech_features/data_frame/frame/GatherV2"
  op: "GatherV2"
  input: "speech_features/data_frame/frame/Reshape"
  input: "speech_features/data_frame/frame/add_1"
  input: "speech_features/data_frame/frame/GatherV2/axis"
  attr {
    key: "Taxis"
    value {
      type: DT_INT32
    }
  }
  attr {
    key: "Tindices"
    value {
      type: DT_INT32
    }
  }
  attr {
    key: "Tparams"
    value {
      type: DT_FLOAT
    }
  }
  attr {
    key: "batch_dims"
    value {
      i: 0
    }
  }
}
node {
  name: "speech_features/data_frame/frame/concat_2/values_0"
  op: "Const"
  attr {
    key: "dtype"
    value {
      type: DT_INT32
    }
  }
  attr {
    key: "value"
    value {
      tensor {
        dtype: DT_INT32
        tensor_shape {
          dim {
            size: 1
          }
        }
        int_val: 1
      }
    }
  }
}
node {
  name: "speech_features/data_frame/frame/concat_2/values_1"
  op: "Pack"
  input: "speech_features/data_frame/frame/Maximum"
  input: "speech_features/data_frame/frame/frame_length"
  attr {
    key: "N"
    value {
      i: 2
    }
  }
  attr {
    key: "T"
    value {
      type: DT_INT32
    }
  }
  attr {
    key: "axis"
    value {
      i: 0
    }
  }
}
node {
  name: "speech_features/data_frame/frame/concat_2/values_2"
  op: "Const"
  attr {
    key: "dtype"
    value {
      type: DT_INT32
    }
  }
  attr {
    key: "value"
    value {
      tensor {
        dtype: DT_INT32
        tensor_shape {
          dim {
          }
        }
      }
    }
  }
}
node {
  name: "speech_features/data_frame/frame/concat_2/axis"
  op: "Const"
  attr {
    key: "dtype"
    value {
      type: DT_INT32
    }
  }
  attr {
    key: "value"
    value {
      tensor {
        dtype: DT_INT32
        tensor_shape {
        }
        int_val: 0
      }
    }
  }
}
node {
  name: "speech_features/data_frame/frame/concat_2"
  op: "ConcatV2"
  input: "speech_features/data_frame/frame/concat_2/values_0"
  input: "speech_features/data_frame/frame/concat_2/values_1"
  input: "speech_features/data_frame/frame/concat_2/values_2"
  input: "speech_features/data_frame/frame/concat_2/axis"
  attr {
    key: "N"
    value {
      i: 3
    }
  }
  attr {
    key: "T"
    value {
      type: DT_INT32
    }
  }
  attr {
    key: "Tidx"
    value {
      type: DT_INT32
    }
  }
}
node {
  name: "speech_features/data_frame/frame/Reshape_3"
  op: "Reshape"
  input: "speech_features/data_frame/frame/GatherV2"
  input: "speech_features/data_frame/frame/concat_2"
  attr {
    key: "T"
    value {
      type: DT_FLOAT
    }
  }
  attr {
    key: "Tshape"
    value {
      type: DT_INT32
    }
  }
}
node {
  name: "speech_features/lambda_3/lambda_3/Identity"
  op: "Identity"
  input: "speech_features/data_frame/frame/Reshape_3"
  attr {
    key: "T"
    value {
      type: DT_FLOAT
    }
  }
}
node {
  name: "speech_features/lambda_4/lambda_4/Identity"
  op: "Identity"
  input: "speech_features/lambda_3/lambda_3/Identity"
  attr {
    key: "T"
    value {
      type: DT_FLOAT
    }
  }
}
node {
  name: "speech_features/windowing/mul/y"
  op: "Const"
  attr {
    key: "dtype"
    value {
      type: DT_FLOAT
    }
  }
  attr {
    key: "value"
    value {
      tensor {
        dtype: DT_FLOAT
        tensor_shape {
          dim {
            size: 160
          }
        }
        tensor_content: "…"
      }
    }
  }
}
node {
  name: "speech_features/windowing/mul"
  op: "Mul"
  input: "speech_features/lambda_4/lambda_4/Identity"
  input: "speech_features/windowing/mul/y"
  attr {
    key: "T"
    value {
      type: DT_FLOAT
    }
  }
}
node {
  name: "speech_features/magnitude_rdf_tmel/Const"
  op: "Const"
  attr {
    key: "dtype"
    value {
      type: DT_FLOAT
    }
  }
  attr {
    key: "value"
    value {
      tensor {
        dtype: DT_FLOAT
        tensor_shape {
          dim {
            size: 122
          }
          dim {
            size: 80
          }
        }
        tensor_content: "…"
      }
    }
  }
}
node {
  name: "speech_features/magnitude_rdf_tmel/Const_1"
  op: "Const"
  attr {
    key: "dtype"
    value {
      type: DT_FLOAT
    }
  }
  attr {
    key: "value"
    value {
      tensor {
        dtype: DT_FLOAT
        tensor_shape {
          dim {
            size: 160
          }
          dim {
            size: 122
          }
        }
        tensor_content: "…"
      }
    }
  }
}
node {
  name: "speech_features/magnitude_rdf_tmel/Const_2"
  op: "Const"
  attr {
    key: "dtype"
    value {
      type: DT_FLOAT
    }
  }
  attr {
    key: "value"
    value {
      tensor {
        dtype: DT_FLOAT
        tensor_shape {
          dim {
            size: 160
          }
          dim {
            size: 122
          }
        }
        tensor_content: "…"
      }
    }
  }
}
node {
  name: "speech_features/magnitude_rdf_tmel/MatMul"
  op: "BatchMatMulV2"
  input: "speech_features/windowing/mul"
  input: "speech_features/magnitude_rdf_tmel/Const_1"
  attr {
    key: "T"
    value {
      type: DT_FLOAT
    }
  }
  attr {
    key: "adj_x"
    value {
      b: false
    }
  }
  attr {
    key: "adj_y"
    value {
      b: false
    }
  }
}
node {
  name: "speech_features/magnitude_rdf_tmel/MatMul_1"
  op: "BatchMatMulV2"
  input: "speech_features/windowing/mul"
  input: "speech_features/magnitude_rdf_tmel/Const_2"
  attr {
    key: "T"
    value {
      type: DT_FLOAT
    }
  }
  attr {
    key: "adj_x"
    value {
      b: false
    }
  }
  attr {
    key: "adj_y"
    value {
      b: false
    }
  }
}
node {
  name: "speech_features/magnitude_rdf_tmel/mul"
  op: "Mul"
  input: "speech_features/magnitude_rdf_tmel/MatMul"
  input: "speech_features/magnitude_rdf_tmel/MatMul"
  attr {
    key: "T"
    value {
      type: DT_FLOAT
    }
  }
}
node {
  name: "speech_features/magnitude_rdf_tmel/mul_1"
  op: "Mul"
  input: "speech_features/magnitude_rdf_tmel/MatMul_1"
  input: "speech_features/magnitude_rdf_tmel/MatMul_1"
  attr {
    key: "T"
    value {
      type: DT_FLOAT
    }
  }
}
node {
  name: "speech_features/magnitude_rdf_tmel/Add"
  op: "AddV2"
  input: "speech_features/magnitude_rdf_tmel/mul"
  input: "speech_features/magnitude_rdf_tmel/mul_1"
  attr {
    key: "T"
    value {
      type: DT_FLOAT
    }
  }
}
node {
  name: "speech_features/magnitude_rdf_tmel/Sqrt"
  op: "Sqrt"
  input: "speech_features/magnitude_rdf_tmel/Add"
  attr {
    key: "T"
    value {
      type: DT_FLOAT
    }
  }
}
node {
  name: "speech_features/magnitude_rdf_tmel/MatMul_2"
  op: "BatchMatMulV2"
  input: "speech_features/magnitude_rdf_tmel/Sqrt"
  input: "speech_features/magnitude_rdf_tmel/Const"
  attr {
    key: "T"
    value {
      type: DT_FLOAT
    }
  }
  attr {
    key: "adj_x"
    value {
      b: false
    }
  }
  attr {
    key: "adj_y"
    value {
      b: false
    }
  }
}
node {
  name: "speech_features/lambda_5/Maximum/y"
  op: "Const"
  attr {
    key: "dtype"
    value {
      type: DT_FLOAT
    }
  }
  attr {
    key: "value"
    value {
      tensor {
        dtype: DT_FLOAT
        tensor_shape {
        }
        float_val: 9.999999960041972e-13
      }
    }
  }
}
node {
  name: "speech_features/lambda_5/Maximum"
  op: "Maximum"
  input: "speech_features/magnitude_rdf_tmel/MatMul_2"
  input: "speech_features/lambda_5/Maximum/y"
  attr {
    key: "T"
    value {
      type: DT_FLOAT
    }
  }
}
node {
  name: "speech_features/lambda_5/Log"
  op: "Log"
  input: "speech_features/lambda_5/Maximum"
  attr {
    key: "T"
    value {
      type: DT_FLOAT
    }
  }
}
node {
  name: "speech_features/dct/MatMul/b"
  op: "Const"
  attr {
    key: "dtype"
    value {
      type: DT_FLOAT
    }
  }
  attr {
    key: "value"
    value {
      tensor {
        dtype: DT_FLOAT
        tensor_shape {
          dim {
            size: 80
          }
          dim {
            size: 40
          }
        }
        tensor_content: "…"
      }
    }
  }
}
node {
  name: "speech_features/dct/MatMul"
  op: "BatchMatMulV2"
  input: "speech_features/lambda_5/Log"
  input: "speech_features/dct/MatMul/b"
  attr {
    key: "T"
    value {
      type: DT_FLOAT
    }
  }
  attr {
    key: "adj_x"
    value {
      b: false
    }
  }
  attr {
    key: "adj_y"
    value {
      b: false
    }
  }
}
node {
  name: "speech_features/normalizer/sub/y"
  op: "Const"
  attr {
    key: "dtype"
    value {
      type: DT_FLOAT
    }
  }
  attr {
    key: "value"
    value {
      tensor {
        dtype: DT_FLOAT
        tensor_shape {
          dim {
            size: 40
          }
        }
        tensor_content: "…"
      }
    }
  }
}
node {
  name: "speech_features/normalizer/sub"
  op: "Sub"
  input: "speech_features/dct/MatMul"
  input: "speech_features/normalizer/sub/y"
  attr {
    key: "T"
    value {
      type: DT_FLOAT
    }
  }
}
node {
  name: "speech_features/normalizer/truediv/y"
  op: "Const"
  attr {
    key: "dtype"
    value {
      type: DT_FLOAT
    }
  }
  attr {
    key: "value"
    value {
      tensor {
        dtype: DT_FLOAT
        tensor_shape {
          dim {
            size: 40
          }
        }
        tensor_content: "…"
      }
    }
  }
}
node {
  name: "speech_features/normalizer/truediv"
  op: "RealDiv"
  input: "speech_features/normalizer/sub"
  input: "speech_features/normalizer/truediv/y"
  attr {
    key: "T"
    value {
      type: DT_FLOAT
    }
  }
}
node {
  name: "keras_learning_phase/input"
  op: "Const"
  attr {
    key: "dtype"
    value {
      type: DT_BOOL
    }
  }
  attr {
    key: "value"
    value {
      tensor {
        dtype: DT_BOOL
        tensor_shape {
        }
        bool_val: false
      }
    }
  }
}
node {
  name: "keras_learning_phase"
  op: "PlaceholderWithDefault"
  input: "keras_learning_phase/input"
  attr {
    key: "dtype"
    value {
      type: DT_BOOL
    }
  }
  attr {
    key: "shape"
    value {
      shape {
      }
    }
  }
}
node {
  name: "speech_features/spec_augment/cond"
  op: "If"
  input: "keras_learning_phase"
  input: "speech_features/normalizer/truediv"
  attr {
    key: "Tcond"
    value {
      type: DT_BOOL
    }
  }
  attr {
    key: "Tin"
    value {
      list {
        type: DT_FLOAT
      }
    }
  }
  attr {
    key: "Tout"
    value {
      list {
        type: DT_FLOAT
        type: DT_VARIANT
        type: DT_VARIANT
        type: DT_VARIANT
        type: DT_VARIANT
        type: DT_VARIANT
        type: DT_VARIANT
        type: DT_VARIANT
        type: DT_VARIANT
        type: DT_VARIANT
        type: DT_VARIANT
        type: DT_VARIANT
        type: DT_VARIANT
        type: DT_VARIANT
        type: DT_VARIANT
        type: DT_VARIANT
        type: DT_VARIANT
        type: DT_VARIANT
        type: DT_VARIANT
        type: DT_VARIANT
        type: DT_VARIANT
        type: DT_VARIANT
        type: DT_VARIANT
        type: DT_VARIANT
        type: DT_VARIANT
        type: DT_VARIANT
        type: DT_VARIANT
        type: DT_VARIANT
        type: DT_VARIANT
        type: DT_VARIANT
        type: DT_VARIANT
        type: DT_VARIANT
        type: DT_VARIANT
        type: DT_VARIANT
        type: DT_VARIANT
        type: DT_VARIANT
        type: DT_VARIANT
        type: DT_VARIANT
        type: DT_VARIANT
        type: DT_VARIANT
        type: DT_VARIANT
        type: DT_VARIANT
        type: DT_VARIANT
        type: DT_VARIANT
        type: DT_VARIANT
        type: DT_VARIANT
        type: DT_VARIANT
        type: DT_VARIANT
        type: DT_VARIANT
        type: DT_VARIANT
        type: DT_VARIANT
        type: DT_VARIANT
        type: DT_VARIANT
        type: DT_VARIANT
        type: DT_VARIANT
        type: DT_VARIANT
        type: DT_VARIANT
        type: DT_VARIANT
        type: DT_VARIANT
        type: DT_VARIANT
        type: DT_VARIANT
        type: DT_VARIANT
        type: DT_VARIANT
        type: DT_VARIANT
        type: DT_VARIANT
        type: DT_VARIANT
        type: DT_VARIANT
        type: DT_VARIANT
        type: DT_VARIANT
        type: DT_VARIANT
        type: DT_VARIANT
        type: DT_VARIANT
        type: DT_VARIANT
        type: DT_VARIANT
        type: DT_VARIANT
        type: DT_VARIANT
        type: DT_VARIANT
        type: DT_VARIANT
        type: DT_VARIANT
        type: DT_VARIANT
        type: DT_VARIANT
        type: DT_VARIANT
        type: DT_VARIANT
        type: DT_VARIANT
        type: DT_VARIANT
        type: DT_VARIANT
        type: DT_VARIANT
        type: DT_VARIANT
        type: DT_VARIANT
        type: DT_VARIANT
        type: DT_VARIANT
        type: DT_VARIANT
        type: DT_VARIANT
        type: DT_VARIANT
        type: DT_VARIANT
        type: DT_VARIANT
        type: DT_VARIANT
        type: DT_VARIANT
        type: DT_VARIANT
        type: DT_VARIANT
        type: DT_VARIANT
        type: DT_VARIANT
        type: DT_VARIANT
        type: DT_VARIANT
        type: DT_VARIANT
        type: DT_VARIANT
        type: DT_VARIANT
        type: DT_VARIANT
        type: DT_VARIANT
        type: DT_VARIANT
        type: DT_VARIANT
        type: DT_VARIANT
        type: DT_VARIANT
        type: DT_VARIANT
        type: DT_VARIANT
        type: DT_VARIANT
        type: DT_VARIANT
        type: DT_VARIANT
        type: DT_VARIANT
        type: DT_VARIANT
        type: DT_VARIANT
        type: DT_VARIANT
        type: DT_VARIANT
        type: DT_VARIANT
        type: DT_VARIANT
        type: DT_VARIANT
        type: DT_VARIANT
        type: DT_VARIANT
        type: DT_VARIANT
        type: DT_VARIANT
        type: DT_VARIANT
        type: DT_VARIANT
        type: DT_VARIANT
        type: DT_VARIANT
        type: DT_VARIANT
        type: DT_VARIANT
        type: DT_VARIANT
        type: DT_VARIANT
        type: DT_VARIANT
        type: DT_VARIANT
        type: DT_VARIANT
        type: DT_VARIANT
        type: DT_VARIANT
        type: DT_VARIANT
        type: DT_VARIANT
        type: DT_VARIANT
        type: DT_VARIANT
        type: DT_VARIANT
        type: DT_VARIANT
        type: DT_VARIANT
        type: DT_VARIANT
        type: DT_VARIANT
        type: DT_VARIANT
        type: DT_VARIANT
        type: DT_VARIANT
        type: DT_VARIANT
        type: DT_VARIANT
        type: DT_VARIANT
        type: DT_VARIANT
        type: DT_VARIANT
        type: DT_VARIANT
        type: DT_VARIANT
        type: DT_VARIANT
        type: DT_VARIANT
        type: DT_VARIANT
        type: DT_VARIANT
        type: DT_VARIANT
        type: DT_VARIANT
        type: DT_VARIANT
        type: DT_VARIANT
        type: DT_VARIANT
        type: DT_VARIANT
        type: DT_VARIANT
        type: DT_VARIANT
        type: DT_VARIANT
        type: DT_VARIANT
        type: DT_VARIANT
        type: DT_VARIANT
        type: DT_VARIANT
        type: DT_VARIANT
      }
    }
  }
  attr {
    key: "_lower_using_switch_merge"
    value {
      b: true
    }
  }
  attr {
    key: "_read_only_resource_inputs"
    value {
      list {
      }
    }
  }
  attr {
    key: "else_branch"
    value {
      func {
        name: "speech_features_spec_augment_cond_false_295"
      }
    }
  }
  attr {
    key: "output_shapes"
    value {
      list {
        shape {
          dim {
            size: 1
          }
          dim {
            size: 100
          }
          dim {
            size: 40
          }
        }
        shape {
        }
        shape {
        }
        shape {
        }
        shape {
        }
        shape {
        }
        shape {
        }
        shape {
        }
        shape {
        }
        shape {
        }
        shape {
        }
        shape {
        }
        shape {
        }
        shape {
        }
        shape {
        }
        shape {
        }
        shape {
        }
        shape {
        }
        shape {
        }
        shape {
        }
        shape {
        }
        shape {
        }
        shape {
        }
        shape {
        }
        shape {
        }
        shape {
        }
        shape {
        }
        shape {
        }
        shape {
        }
        shape {
        }
        shape {
        }
        shape {
        }
        shape {
        }
        shape {
        }
        shape {
        }
        shape {
        }
        shape {
        }
        shape {
        }
        shape {
        }
        shape {
        }
        shape {
        }
        shape {
        }
        shape {
        }
        shape {
        }
        shape {
        }
        shape {
        }
        shape {
        }
        shape {
        }
        shape {
        }
        shape {
        }
        shape {
        }
        shape {
        }
        shape {
        }
        shape {
        }
        shape {
        }
        shape {
        }
        shape {
        }
        shape {
        }
        shape {
        }
        shape {
        }
        shape {
        }
        shape {
        }
        shape {
        }
        shape {
        }
        shape {
        }
        shape {
        }
        shape {
        }
        shape {
        }
        shape {
        }
        shape {
        }
        shape {
        }
        shape {
        }
        shape {
        }
        shape {
        }
        shape {
        }
        shape {
        }
        shape {
        }
        shape {
        }
        shape {
        }
        shape {
        }
        shape {
        }
        shape {
        }
        shape {
        }
        shape {
        }
        shape {
        }
        shape {
        }
        shape {
        }
        shape {
        }
        shape {
        }
        shape {
        }
        shape {
        }
        shape {
        }
        shape {
        }
        shape {
        }
        shape {
        }
        shape {
        }
        shape {
        }
        shape {
        }
        shape {
        }
        shape {
        }
        shape {
        }
        shape {
        }
        shape {
        }
        shape {
        }
        shape {
        }
        shape {
        }
        shape {
        }
        shape {
        }
        shape {
        }
        shape {
        }
        shape {
        }
        shape {
        }
        shape {
        }
        shape {
        }
        shape {
        }
        shape {
        }
        shape {
        }
        shape {
        }
        shape {
        }
        shape {
        }
        shape {
        }
        shape {
        }
        shape {
        }
        shape {
        }
        shape {
        }
        shape {
        }
        shape {
        }
        shape {
        }
        shape {
        }
        shape {
        }
        shape {
        }
        shape {
        }
        shape {
        }
        shape {
        }
        shape {
        }
        shape {
        }
        shape {
        }
        shape {
        }
        shape {
        }
        shape {
        }
        shape {
        }
        shape {
        }
        shape {
        }
        shape {
        }
        shape {
        }
        shape {
        }
        shape {
        }
        shape {
        }
        shape {
        }
        shape {
        }
        shape {
        }
        shape {
        }
        shape {
        }
        shape {
        }
        shape {
        }
        shape {
        }
        shape {
        }
        shape {
        }
        shape {
        }
        shape {
        }
        shape {
        }
        shape {
        }
        shape {
        }
        shape {
        }
        shape {
        }
        shape {
        }
        shape {
        }
        shape {
        }
        shape {
        }
        shape {
        }
        shape {
        }
        shape {
        }
        shape {
        }
        shape {
        }
        shape {
        }
        shape {
        }
        shape {
        }
        shape {
        }
        shape {
        }
        shape {
        }
      }
    }
  }
  attr {
    key: "then_branch"
    value {
      func {
        name: "speech_features_spec_augment_cond_true_294"
      }
    }
  }
}
node {
  name: "speech_features/spec_augment/cond/Identity"
  op: "Identity"
  input: "speech_features/spec_augment/cond"
  attr {
    key: "T"
    value {
      type: DT_FLOAT
    }
  }
}
node {
  name: "speech_features/spec_augment/cond/Identity_1"
  op: "Identity"
  input: "speech_features/spec_augment/cond:1"
  attr {
    key: "T"
    value {
      type: DT_VARIANT
    }
  }
}
node {
  name: "speech_features/spec_augment/cond/Identity_2"
  op: "Identity"
  input: "speech_features/spec_augment/cond:2"
  attr {
    key: "T"
    value {
      type: DT_VARIANT
    }
  }
}
node {
  name: "speech_features/spec_augment/cond/Identity_3"
  op: "Identity"
  input: "speech_features/spec_augment/cond:3"
  attr {
    key: "T"
    value {
      type: DT_VARIANT
    }
  }
}
node {
  name: "speech_features/spec_augment/cond/Identity_4"
  op: "Identity"
  input: "speech_features/spec_augment/cond:4"
  attr {
    key: "T"
    value {
      type: DT_VARIANT
    }
  }
}
node {
  name: "speech_features/spec_augment/cond/Identity_5"
  op: "Identity"
  input: "speech_features/spec_augment/cond:5"
  attr {
    key: "T"
    value {
      type: DT_VARIANT
    }
  }
}
node {
  name: "speech_features/spec_augment/cond/Identity_6"
  op: "Identity"
  input: "speech_features/spec_augment/cond:6"
  attr {
    key: "T"
    value {
      type: DT_VARIANT
    }
  }
}
node {
  name: "speech_features/spec_augment/cond/Identity_7"
  op: "Identity"
  input: "speech_features/spec_augment/cond:7"
  attr {
    key: "T"
    value {
      type: DT_VARIANT
    }
  }
}
node {
  name: "speech_features/spec_augment/cond/Identity_8"
  op: "Identity"
  input: "speech_features/spec_augment/cond:8"
  attr {
    key: "T"
    value {
      type: DT_VARIANT
    }
  }
}
node {
  name: "speech_features/spec_augment/cond/Identity_9"
  op: "Identity"
  input: "speech_features/spec_augment/cond:9"
  attr {
    key: "T"
    value {
      type: DT_VARIANT
    }
  }
}
node {
  name: "speech_features/spec_augment/cond/Identity_10"
  op: "Identity"
  input: "speech_features/spec_augment/cond:10"
  attr {
    key: "T"
    value {
      type: DT_VARIANT
    }
  }
}
node {
  name: "speech_features/spec_augment/cond/Identity_11"
  op: "Identity"
  input: "speech_features/spec_augment/cond:11"
  attr {
    key: "T"
    value {
      type: DT_VARIANT
    }
  }
}
node {
  name: "speech_features/spec_augment/cond/Identity_12"
  op: "Identity"
  input: "speech_features/spec_augment/cond:12"
  attr {
    key: "T"
    value {
      type: DT_VARIANT
    }
  }
}
node {
  name: "speech_features/spec_augment/cond/Identity_13"
  op: "Identity"
  input: "speech_features/spec_augment/cond:13"
  attr {
    key: "T"
    value {
      type: DT_VARIANT
    }
  }
}
node {
  name: "speech_features/spec_augment/cond/Identity_14"
  op: "Identity"
  input: "speech_features/spec_augment/cond:14"
  attr {
    key: "T"
    value {
      type: DT_VARIANT
    }
  }
}
node {
  name: "speech_features/spec_augment/cond/Identity_15"
  op: "Identity"
  input: "speech_features/spec_augment/cond:15"
  attr {
    key: "T"
    value {
      type: DT_VARIANT
    }
  }
}
node {
  name: "speech_features/spec_augment/cond/Identity_16"
  op: "Identity"
  input: "speech_features/spec_augment/cond:16"
  attr {
    key: "T"
    value {
      type: DT_VARIANT
    }
  }
}
node {
  name: "speech_features/spec_augment/cond/Identity_17"
  op: "Identity"
  input: "speech_features/spec_augment/cond:17"
  attr {
    key: "T"
    value {
      type: DT_VARIANT
    }
  }
}
node {
  name: "speech_features/spec_augment/cond/Identity_18"
  op: "Identity"
  input: "speech_features/spec_augment/cond:18"
  attr {
    key: "T"
    value {
      type: DT_VARIANT
    }
  }
}
node {
  name: "speech_features/spec_augment/cond/Identity_19"
  op: "Identity"
  input: "speech_features/spec_augment/cond:19"
  attr {
    key: "T"
    value {
      type: DT_VARIANT
    }
  }
}
node {
  name: "speech_features/spec_augment/cond/Identity_20"
  op: "Identity"
  input: "speech_features/spec_augment/cond:20"
  attr {
    key: "T"
    value {
      type: DT_VARIANT
    }
  }
}
node {
  name: "speech_features/spec_augment/cond/Identity_21"
  op: "Identity"
  input: "speech_features/spec_augment/cond:21"
  attr {
    key: "T"
    value {
      type: DT_VARIANT
    }
  }
}
node {
  name: "speech_features/spec_augment/cond/Identity_22"
  op: "Identity"
  input: "speech_features/spec_augment/cond:22"
  attr {
    key: "T"
    value {
      type: DT_VARIANT
    }
  }
}
node {
  name: "speech_features/spec_augment/cond/Identity_23"
  op: "Identity"
  input: "speech_features/spec_augment/cond:23"
  attr {
    key: "T"
    value {
      type: DT_VARIANT
    }
  }
}
node {
  name: "speech_features/spec_augment/cond/Identity_24"
  op: "Identity"
  input: "speech_features/spec_augment/cond:24"
  attr {
    key: "T"
    value {
      type: DT_VARIANT
    }
  }
}
node {
  name: "speech_features/spec_augment/cond/Identity_25"
  op: "Identity"
  input: "speech_features/spec_augment/cond:25"
  attr {
    key: "T"
    value {
      type: DT_VARIANT
    }
  }
}
node {
  name: "speech_features/spec_augment/cond/Identity_26"
  op: "Identity"
  input: "speech_features/spec_augment/cond:26"
  attr {
    key: "T"
    value {
      type: DT_VARIANT
    }
  }
}
node {
  name: "speech_features/spec_augment/cond/Identity_27"
  op: "Identity"
  input: "speech_features/spec_augment/cond:27"
  attr {
    key: "T"
    value {
      type: DT_VARIANT
    }
  }
}
node {
  name: "speech_features/spec_augment/cond/Identity_28"
  op: "Identity"
  input: "speech_features/spec_augment/cond:28"
  attr {
    key: "T"
    value {
      type: DT_VARIANT
    }
  }
}
node {
  name: "speech_features/spec_augment/cond/Identity_29"
  op: "Identity"
  input: "speech_features/spec_augment/cond:29"
  attr {
    key: "T"
    value {
      type: DT_VARIANT
    }
  }
}
node {
  name: "speech_features/spec_augment/cond/Identity_30"
  op: "Identity"
  input: "speech_features/spec_augment/cond:30"
  attr {
    key: "T"
    value {
      type: DT_VARIANT
    }
  }
}
node {
  name: "speech_features/spec_augment/cond/Identity_31"
  op: "Identity"
  input: "speech_features/spec_augment/cond:31"
  attr {
    key: "T"
    value {
      type: DT_VARIANT
    }
  }
}
node {
  name: "speech_features/spec_augment/cond/Identity_32"
  op: "Identity"
  input: "speech_features/spec_augment/cond:32"
  attr {
    key: "T"
    value {
      type: DT_VARIANT
    }
  }
}
node {
  name: "speech_features/spec_augment/cond/Identity_33"
  op: "Identity"
  input: "speech_features/spec_augment/cond:33"
  attr {
    key: "T"
    value {
      type: DT_VARIANT
    }
  }
}
node {
  name: "speech_features/spec_augment/cond/Identity_34"
  op: "Identity"
  input: "speech_features/spec_augment/cond:34"
  attr {
    key: "T"
    value {
      type: DT_VARIANT
    }
  }
}
node {
  name: "speech_features/spec_augment/cond/Identity_35"
  op: "Identity"
  input: "speech_features/spec_augment/cond:35"
  attr {
    key: "T"
    value {
      type: DT_VARIANT
    }
  }
}
node {
  name: "speech_features/spec_augment/cond/Identity_36"
  op: "Identity"
  input: "speech_features/spec_augment/cond:36"
  attr {
    key: "T"
    value {
      type: DT_VARIANT
    }
  }
}
node {
  name: "speech_features/spec_augment/cond/Identity_37"
  op: "Identity"
  input: "speech_features/spec_augment/cond:37"
  attr {
    key: "T"
    value {
      type: DT_VARIANT
    }
  }
}
node {
  name: "speech_features/spec_augment/cond/Identity_38"
  op: "Identity"
  input: "speech_features/spec_augment/cond:38"
  attr {
    key: "T"
    value {
      type: DT_VARIANT
    }
  }
}
node {
  name: "speech_features/spec_augment/cond/Identity_39"
  op: "Identity"
  input: "speech_features/spec_augment/cond:39"
  attr {
    key: "T"
    value {
      type: DT_VARIANT
    }
  }
}
node {
  name: "speech_features/spec_augment/cond/Identity_40"
  op: "Identity"
  input: "speech_features/spec_augment/cond:40"
  attr {
    key: "T"
    value {
      type: DT_VARIANT
    }
  }
}
node {
  name: "speech_features/spec_augment/cond/Identity_41"
  op: "Identity"
  input: "speech_features/spec_augment/cond:41"
  attr {
    key: "T"
    value {
      type: DT_VARIANT
    }
  }
}
node {
  name: "speech_features/spec_augment/cond/Identity_42"
  op: "Identity"
  input: "speech_features/spec_augment/cond:42"
  attr {
    key: "T"
    value {
      type: DT_VARIANT
    }
  }
}
node {
  name: "speech_features/spec_augment/cond/Identity_43"
  op: "Identity"
  input: "speech_features/spec_augment/cond:43"
  attr {
    key: "T"
    value {
      type: DT_VARIANT
    }
  }
}
node {
  name: "speech_features/spec_augment/cond/Identity_44"
  op: "Identity"
  input: "speech_features/spec_augment/cond:44"
  attr {
    key: "T"
    value {
      type: DT_VARIANT
    }
  }
}
node {
  name: "speech_features/spec_augment/cond/Identity_45"
  op: "Identity"
  input: "speech_features/spec_augment/cond:45"
  attr {
    key: "T"
    value {
      type: DT_VARIANT
    }
  }
}
node {
  name: "speech_features/spec_augment/cond/Identity_46"
  op: "Identity"
  input: "speech_features/spec_augment/cond:46"
  attr {
    key: "T"
    value {
      type: DT_VARIANT
    }
  }
}
node {
  name: "speech_features/spec_augment/cond/Identity_47"
  op: "Identity"
  input: "speech_features/spec_augment/cond:47"
  attr {
    key: "T"
    value {
      type: DT_VARIANT
    }
  }
}
node {
  name: "speech_features/spec_augment/cond/Identity_48"
  op: "Identity"
  input: "speech_features/spec_augment/cond:48"
  attr {
    key: "T"
    value {
      type: DT_VARIANT
    }
  }
}
node {
  name: "speech_features/spec_augment/cond/Identity_49"
  op: "Identity"
  input: "speech_features/spec_augment/cond:49"
  attr {
    key: "T"
    value {
      type: DT_VARIANT
    }
  }
}
node {
  name: "speech_features/spec_augment/cond/Identity_50"
  op: "Identity"
  input: "speech_features/spec_augment/cond:50"
  attr {
    key: "T"
    value {
      type: DT_VARIANT
    }
  }
}
node {
  name: "speech_features/spec_augment/cond/Identity_51"
  op: "Identity"
  input: "speech_features/spec_augment/cond:51"
  attr {
    key: "T"
    value {
      type: DT_VARIANT
    }
  }
}
node {
  name: "speech_features/spec_augment/cond/Identity_52"
  op: "Identity"
  input: "speech_features/spec_augment/cond:52"
  attr {
    key: "T"
    value {
      type: DT_VARIANT
    }
  }
}
node {
  name: "speech_features/spec_augment/cond/Identity_53"
  op: "Identity"
  input: "speech_features/spec_augment/cond:53"
  attr {
    key: "T"
    value {
      type: DT_VARIANT
    }
  }
}
node {
  name: "speech_features/spec_augment/cond/Identity_54"
  op: "Identity"
  input: "speech_features/spec_augment/cond:54"
  attr {
    key: "T"
    value {
      type: DT_VARIANT
    }
  }
}
node {
  name: "speech_features/spec_augment/cond/Identity_55"
  op: "Identity"
  input: "speech_features/spec_augment/cond:55"
  attr {
    key: "T"
    value {
      type: DT_VARIANT
    }
  }
}
node {
  name: "speech_features/spec_augment/cond/Identity_56"
  op: "Identity"
  input: "speech_features/spec_augment/cond:56"
  attr {
    key: "T"
    value {
      type: DT_VARIANT
    }
  }
}
node {
  name: "speech_features/spec_augment/cond/Identity_57"
  op: "Identity"
  input: "speech_features/spec_augment/cond:57"
  attr {
    key: "T"
    value {
      type: DT_VARIANT
    }
  }
}
node {
  name: "speech_features/spec_augment/cond/Identity_58"
  op: "Identity"
  input: "speech_features/spec_augment/cond:58"
  attr {
    key: "T"
    value {
      type: DT_VARIANT
    }
  }
}
node {
  name: "speech_features/spec_augment/cond/Identity_59"
  op: "Identity"
  input: "speech_features/spec_augment/cond:59"
  attr {
    key: "T"
    value {
      type: DT_VARIANT
    }
  }
}
node {
  name: "speech_features/spec_augment/cond/Identity_60"
  op: "Identity"
  input: "speech_features/spec_augment/cond:60"
  attr {
    key: "T"
    value {
      type: DT_VARIANT
    }
  }
}
node {
  name: "speech_features/spec_augment/cond/Identity_61"
  op: "Identity"
  input: "speech_features/spec_augment/cond:61"
  attr {
    key: "T"
    value {
      type: DT_VARIANT
    }
  }
}
node {
  name: "speech_features/spec_augment/cond/Identity_62"
  op: "Identity"
  input: "speech_features/spec_augment/cond:62"
  attr {
    key: "T"
    value {
      type: DT_VARIANT
    }
  }
}
node {
  name: "speech_features/spec_augment/cond/Identity_63"
  op: "Identity"
  input: "speech_features/spec_augment/cond:63"
  attr {
    key: "T"
    value {
      type: DT_VARIANT
    }
  }
}
node {
  name: "speech_features/spec_augment/cond/Identity_64"
  op: "Identity"
  input: "speech_features/spec_augment/cond:64"
  attr {
    key: "T"
    value {
      type: DT_VARIANT
    }
  }
}
node {
  name: "speech_features/spec_augment/cond/Identity_65"
  op: "Identity"
  input: "speech_features/spec_augment/cond:65"
  attr {
    key: "T"
    value {
      type: DT_VARIANT
    }
  }
}
node {
  name: "speech_features/spec_augment/cond/Identity_66"
  op: "Identity"
  input: "speech_features/spec_augment/cond:66"
  attr {
    key: "T"
    value {
      type: DT_VARIANT
    }
  }
}
node {
  name: "speech_features/spec_augment/cond/Identity_67"
  op: "Identity"
  input: "speech_features/spec_augment/cond:67"
  attr {
    key: "T"
    value {
      type: DT_VARIANT
    }
  }
}
node {
  name: "speech_features/spec_augment/cond/Identity_68"
  op: "Identity"
  input: "speech_features/spec_augment/cond:68"
  attr {
    key: "T"
    value {
      type: DT_VARIANT
    }
  }
}
node {
  name: "speech_features/spec_augment/cond/Identity_69"
  op: "Identity"
  input: "speech_features/spec_augment/cond:69"
  attr {
    key: "T"
    value {
      type: DT_VARIANT
    }
  }
}
node {
  name: "speech_features/spec_augment/cond/Identity_70"
  op: "Identity"
  input: "speech_features/spec_augment/cond:70"
  attr {
    key: "T"
    value {
      type: DT_VARIANT
    }
  }
}
node {
  name: "speech_features/spec_augment/cond/Identity_71"
  op: "Identity"
  input: "speech_features/spec_augment/cond:71"
  attr {
    key: "T"
    value {
      type: DT_VARIANT
    }
  }
}
node {
  name: "speech_features/spec_augment/cond/Identity_72"
  op: "Identity"
  input: "speech_features/spec_augment/cond:72"
  attr {
    key: "T"
    value {
      type: DT_VARIANT
    }
  }
}
node {
  name: "speech_features/spec_augment/cond/Identity_73"
  op: "Identity"
  input: "speech_features/spec_augment/cond:73"
  attr {
    key: "T"
    value {
      type: DT_VARIANT
    }
  }
}
node {
  name: "speech_features/spec_augment/cond/Identity_74"
  op: "Identity"
  input: "speech_features/spec_augment/cond:74"
  attr {
    key: "T"
    value {
      type: DT_VARIANT
    }
  }
}
node {
  name: "speech_features/spec_augment/cond/Identity_75"
  op: "Identity"
  input: "speech_features/spec_augment/cond:75"
  attr {
    key: "T"
    value {
      type: DT_VARIANT
    }
  }
}
node {
  name: "speech_features/spec_augment/cond/Identity_76"
  op: "Identity"
  input: "speech_features/spec_augment/cond:76"
  attr {
    key: "T"
    value {
      type: DT_VARIANT
    }
  }
}
node {
  name: "speech_features/spec_augment/cond/Identity_77"
  op: "Identity"
  input: "speech_features/spec_augment/cond:77"
  attr {
    key: "T"
    value {
      type: DT_VARIANT
    }
  }
}
node {
  name: "speech_features/spec_augment/cond/Identity_78"
  op: "Identity"
  input: "speech_features/spec_augment/cond:78"
  attr {
    key: "T"
    value {
      type: DT_VARIANT
    }
  }
}
node {
  name: "speech_features/spec_augment/cond/Identity_79"
  op: "Identity"
  input: "speech_features/spec_augment/cond:79"
  attr {
    key: "T"
    value {
      type: DT_VARIANT
    }
  }
}
node {
  name: "speech_features/spec_augment/cond/Identity_80"
  op: "Identity"
  input: "speech_features/spec_augment/cond:80"
  attr {
    key: "T"
    value {
      type: DT_VARIANT
    }
  }
}
node {
  name: "speech_features/spec_augment/cond/Identity_81"
  op: "Identity"
  input: "speech_features/spec_augment/cond:81"
  attr {
    key: "T"
    value {
      type: DT_VARIANT
    }
  }
}
node {
  name: "speech_features/spec_augment/cond/Identity_82"
  op: "Identity"
  input: "speech_features/spec_augment/cond:82"
  attr {
    key: "T"
    value {
      type: DT_VARIANT
    }
  }
}
node {
  name: "speech_features/spec_augment/cond/Identity_83"
  op: "Identity"
  input: "speech_features/spec_augment/cond:83"
  attr {
    key: "T"
    value {
      type: DT_VARIANT
    }
  }
}
node {
  name: "speech_features/spec_augment/cond/Identity_84"
  op: "Identity"
  input: "speech_features/spec_augment/cond:84"
  attr {
    key: "T"
    value {
      type: DT_VARIANT
    }
  }
}
node {
  name: "speech_features/spec_augment/cond/Identity_85"
  op: "Identity"
  input: "speech_features/spec_augment/cond:85"
  attr {
    key: "T"
    value {
      type: DT_VARIANT
    }
  }
}
node {
  name: "speech_features/spec_augment/cond/Identity_86"
  op: "Identity"
  input: "speech_features/spec_augment/cond:86"
  attr {
    key: "T"
    value {
      type: DT_VARIANT
    }
  }
}
node {
  name: "speech_features/spec_augment/cond/Identity_87"
  op: "Identity"
  input: "speech_features/spec_augment/cond:87"
  attr {
    key: "T"
    value {
      type: DT_VARIANT
    }
  }
}
node {
  name: "speech_features/spec_augment/cond/Identity_88"
  op: "Identity"
  input: "speech_features/spec_augment/cond:88"
  attr {
    key: "T"
    value {
      type: DT_VARIANT
    }
  }
}
node {
  name: "speech_features/spec_augment/cond/Identity_89"
  op: "Identity"
  input: "speech_features/spec_augment/cond:89"
  attr {
    key: "T"
    value {
      type: DT_VARIANT
    }
  }
}
node {
  name: "speech_features/spec_augment/cond/Identity_90"
  op: "Identity"
  input: "speech_features/spec_augment/cond:90"
  attr {
    key: "T"
    value {
      type: DT_VARIANT
    }
  }
}
node {
  name: "speech_features/spec_augment/cond/Identity_91"
  op: "Identity"
  input: "speech_features/spec_augment/cond:91"
  attr {
    key: "T"
    value {
      type: DT_VARIANT
    }
  }
}
node {
  name: "speech_features/spec_augment/cond/Identity_92"
  op: "Identity"
  input: "speech_features/spec_augment/cond:92"
  attr {
    key: "T"
    value {
      type: DT_VARIANT
    }
  }
}
node {
  name: "speech_features/spec_augment/cond/Identity_93"
  op: "Identity"
  input: "speech_features/spec_augment/cond:93"
  attr {
    key: "T"
    value {
      type: DT_VARIANT
    }
  }
}
node {
  name: "speech_features/spec_augment/cond/Identity_94"
  op: "Identity"
  input: "speech_features/spec_augment/cond:94"
  attr {
    key: "T"
    value {
      type: DT_VARIANT
    }
  }
}
node {
  name: "speech_features/spec_augment/cond/Identity_95"
  op: "Identity"
  input: "speech_features/spec_augment/cond:95"
  attr {
    key: "T"
    value {
      type: DT_VARIANT
    }
  }
}
node {
  name: "speech_features/spec_augment/cond/Identity_96"
  op: "Identity"
  input: "speech_features/spec_augment/cond:96"
  attr {
    key: "T"
    value {
      type: DT_VARIANT
    }
  }
}
node {
  name: "speech_features/spec_augment/cond/Identity_97"
  op: "Identity"
  input: "speech_features/spec_augment/cond:97"
  attr {
    key: "T"
    value {
      type: DT_VARIANT
    }
  }
}
node {
  name: "speech_features/spec_augment/cond/Identity_98"
  op: "Identity"
  input: "speech_features/spec_augment/cond:98"
  attr {
    key: "T"
    value {
      type: DT_VARIANT
    }
  }
}
node {
  name: "speech_features/spec_augment/cond/Identity_99"
  op: "Identity"
  input: "speech_features/spec_augment/cond:99"
  attr {
    key: "T"
    value {
      type: DT_VARIANT
    }
  }
}
node {
  name: "speech_features/spec_augment/cond/Identity_100"
  op: "Identity"
  input: "speech_features/spec_augment/cond:100"
  attr {
    key: "T"
    value {
      type: DT_VARIANT
    }
  }
}
node {
  name: "speech_features/spec_augment/cond/Identity_101"
  op: "Identity"
  input: "speech_features/spec_augment/cond:101"
  attr {
    key: "T"
    value {
      type: DT_VARIANT
    }
  }
}
node {
  name: "speech_features/spec_augment/cond/Identity_102"
  op: "Identity"
  input: "speech_features/spec_augment/cond:102"
  attr {
    key: "T"
    value {
      type: DT_VARIANT
    }
  }
}
node {
  name: "speech_features/spec_augment/cond/Identity_103"
  op: "Identity"
  input: "speech_features/spec_augment/cond:103"
  attr {
    key: "T"
    value {
      type: DT_VARIANT
    }
  }
}
node {
  name: "speech_features/spec_augment/cond/Identity_104"
  op: "Identity"
  input: "speech_features/spec_augment/cond:104"
  attr {
    key: "T"
    value {
      type: DT_VARIANT
    }
  }
}
node {
  name: "speech_features/spec_augment/cond/Identity_105"
  op: "Identity"
  input: "speech_features/spec_augment/cond:105"
  attr {
    key: "T"
    value {
      type: DT_VARIANT
    }
  }
}
node {
  name: "speech_features/spec_augment/cond/Identity_106"
  op: "Identity"
  input: "speech_features/spec_augment/cond:106"
  attr {
    key: "T"
    value {
      type: DT_VARIANT
    }
  }
}
node {
  name: "speech_features/spec_augment/cond/Identity_107"
  op: "Identity"
  input: "speech_features/spec_augment/cond:107"
  attr {
    key: "T"
    value {
      type: DT_VARIANT
    }
  }
}
node {
  name: "speech_features/spec_augment/cond/Identity_108"
  op: "Identity"
  input: "speech_features/spec_augment/cond:108"
  attr {
    key: "T"
    value {
      type: DT_VARIANT
    }
  }
}
node {
  name: "speech_features/spec_augment/cond/Identity_109"
  op: "Identity"
  input: "speech_features/spec_augment/cond:109"
  attr {
    key: "T"
    value {
      type: DT_VARIANT
    }
  }
}
node {
  name: "speech_features/spec_augment/cond/Identity_110"
  op: "Identity"
  input: "speech_features/spec_augment/cond:110"
  attr {
    key: "T"
    value {
      type: DT_VARIANT
    }
  }
}
node {
  name: "speech_features/spec_augment/cond/Identity_111"
  op: "Identity"
  input: "speech_features/spec_augment/cond:111"
  attr {
    key: "T"
    value {
      type: DT_VARIANT
    }
  }
}
node {
  name: "speech_features/spec_augment/cond/Identity_112"
  op: "Identity"
  input: "speech_features/spec_augment/cond:112"
  attr {
    key: "T"
    value {
      type: DT_VARIANT
    }
  }
}
node {
  name: "speech_features/spec_augment/cond/Identity_113"
  op: "Identity"
  input: "speech_features/spec_augment/cond:113"
  attr {
    key: "T"
    value {
      type: DT_VARIANT
    }
  }
}
node {
  name: "speech_features/spec_augment/cond/Identity_114"
  op: "Identity"
  input: "speech_features/spec_augment/cond:114"
  attr {
    key: "T"
    value {
      type: DT_VARIANT
    }
  }
}
node {
  name: "speech_features/spec_augment/cond/Identity_115"
  op: "Identity"
  input: "speech_features/spec_augment/cond:115"
  attr {
    key: "T"
    value {
      type: DT_VARIANT
    }
  }
}
node {
  name: "speech_features/spec_augment/cond/Identity_116"
  op: "Identity"
  input: "speech_features/spec_augment/cond:116"
  attr {
    key: "T"
    value {
      type: DT_VARIANT
    }
  }
}
node {
  name: "speech_features/spec_augment/cond/Identity_117"
  op: "Identity"
  input: "speech_features/spec_augment/cond:117"
  attr {
    key: "T"
    value {
      type: DT_VARIANT
    }
  }
}
node {
  name: "speech_features/spec_augment/cond/Identity_118"
  op: "Identity"
  input: "speech_features/spec_augment/cond:118"
  attr {
    key: "T"
    value {
      type: DT_VARIANT
    }
  }
}
node {
  name: "speech_features/spec_augment/cond/Identity_119"
  op: "Identity"
  input: "speech_features/spec_augment/cond:119"
  attr {
    key: "T"
    value {
      type: DT_VARIANT
    }
  }
}
node {
  name: "speech_features/spec_augment/cond/Identity_120"
  op: "Identity"
  input: "speech_features/spec_augment/cond:120"
  attr {
    key: "T"
    value {
      type: DT_VARIANT
    }
  }
}
node {
  name: "speech_features/spec_augment/cond/Identity_121"
  op: "Identity"
  input: "speech_features/spec_augment/cond:121"
  attr {
    key: "T"
    value {
      type: DT_VARIANT
    }
  }
}
node {
  name: "speech_features/spec_augment/cond/Identity_122"
  op: "Identity"
  input: "speech_features/spec_augment/cond:122"
  attr {
    key: "T"
    value {
      type: DT_VARIANT
    }
  }
}
node {
  name: "speech_features/spec_augment/cond/Identity_123"
  op: "Identity"
  input: "speech_features/spec_augment/cond:123"
  attr {
    key: "T"
    value {
      type: DT_VARIANT
    }
  }
}
node {
  name: "speech_features/spec_augment/cond/Identity_124"
  op: "Identity"
  input: "speech_features/spec_augment/cond:124"
  attr {
    key: "T"
    value {
      type: DT_VARIANT
    }
  }
}
node {
  name: "speech_features/spec_augment/cond/Identity_125"
  op: "Identity"
  input: "speech_features/spec_augment/cond:125"
  attr {
    key: "T"
    value {
      type: DT_VARIANT
    }
  }
}
node {
  name: "speech_features/spec_augment/cond/Identity_126"
  op: "Identity"
  input: "speech_features/spec_augment/cond:126"
  attr {
    key: "T"
    value {
      type: DT_VARIANT
    }
  }
}
node {
  name: "speech_features/spec_augment/cond/Identity_127"
  op: "Identity"
  input: "speech_features/spec_augment/cond:127"
  attr {
    key: "T"
    value {
      type: DT_VARIANT
    }
  }
}
node {
  name: "speech_features/spec_augment/cond/Identity_128"
  op: "Identity"
  input: "speech_features/spec_augment/cond:128"
  attr {
    key: "T"
    value {
      type: DT_VARIANT
    }
  }
}
node {
  name: "speech_features/spec_augment/cond/Identity_129"
  op: "Identity"
  input: "speech_features/spec_augment/cond:129"
  attr {
    key: "T"
    value {
      type: DT_VARIANT
    }
  }
}
node {
  name: "speech_features/spec_augment/cond/Identity_130"
  op: "Identity"
  input: "speech_features/spec_augment/cond:130"
  attr {
    key: "T"
    value {
      type: DT_VARIANT
    }
  }
}
node {
  name: "speech_features/spec_augment/cond/Identity_131"
  op: "Identity"
  input: "speech_features/spec_augment/cond:131"
  attr {
    key: "T"
    value {
      type: DT_VARIANT
    }
  }
}
node {
  name: "speech_features/spec_augment/cond/Identity_132"
  op: "Identity"
  input: "speech_features/spec_augment/cond:132"
  attr {
    key: "T"
    value {
      type: DT_VARIANT
    }
  }
}
node {
  name: "speech_features/spec_augment/cond/Identity_133"
  op: "Identity"
  input: "speech_features/spec_augment/cond:133"
  attr {
    key: "T"
    value {
      type: DT_VARIANT
    }
  }
}
node {
  name: "speech_features/spec_augment/cond/Identity_134"
  op: "Identity"
  input: "speech_features/spec_augment/cond:134"
  attr {
    key: "T"
    value {
      type: DT_VARIANT
    }
  }
}
node {
  name: "speech_features/spec_augment/cond/Identity_135"
  op: "Identity"
  input: "speech_features/spec_augment/cond:135"
  attr {
    key: "T"
    value {
      type: DT_VARIANT
    }
  }
}
node {
  name: "speech_features/spec_augment/cond/Identity_136"
  op: "Identity"
  input: "speech_features/spec_augment/cond:136"
  attr {
    key: "T"
    value {
      type: DT_VARIANT
    }
  }
}
node {
  name: "speech_features/spec_augment/cond/Identity_137"
  op: "Identity"
  input: "speech_features/spec_augment/cond:137"
  attr {
    key: "T"
    value {
      type: DT_VARIANT
    }
  }
}
node {
  name: "speech_features/spec_augment/cond/Identity_138"
  op: "Identity"
  input: "speech_features/spec_augment/cond:138"
  attr {
    key: "T"
    value {
      type: DT_VARIANT
    }
  }
}
node {
  name: "speech_features/spec_augment/cond/Identity_139"
  op: "Identity"
  input: "speech_features/spec_augment/cond:139"
  attr {
    key: "T"
    value {
      type: DT_VARIANT
    }
  }
}
node {
  name: "speech_features/spec_augment/cond/Identity_140"
  op: "Identity"
  input: "speech_features/spec_augment/cond:140"
  attr {
    key: "T"
    value {
      type: DT_VARIANT
    }
  }
}
node {
  name: "speech_features/spec_augment/cond/Identity_141"
  op: "Identity"
  input: "speech_features/spec_augment/cond:141"
  attr {
    key: "T"
    value {
      type: DT_VARIANT
    }
  }
}
node {
  name: "speech_features/spec_augment/cond/Identity_142"
  op: "Identity"
  input: "speech_features/spec_augment/cond:142"
  attr {
    key: "T"
    value {
      type: DT_VARIANT
    }
  }
}
node {
  name: "speech_features/spec_augment/cond/Identity_143"
  op: "Identity"
  input: "speech_features/spec_augment/cond:143"
  attr {
    key: "T"
    value {
      type: DT_VARIANT
    }
  }
}
node {
  name: "speech_features/spec_augment/cond/Identity_144"
  op: "Identity"
  input: "speech_features/spec_augment/cond:144"
  attr {
    key: "T"
    value {
      type: DT_VARIANT
    }
  }
}
node {
  name: "speech_features/spec_augment/cond/Identity_145"
  op: "Identity"
  input: "speech_features/spec_augment/cond:145"
  attr {
    key: "T"
    value {
      type: DT_VARIANT
    }
  }
}
node {
  name: "speech_features/spec_augment/cond/Identity_146"
  op: "Identity"
  input: "speech_features/spec_augment/cond:146"
  attr {
    key: "T"
    value {
      type: DT_VARIANT
    }
  }
}
node {
  name: "speech_features/spec_augment/cond/Identity_147"
  op: "Identity"
  input: "speech_features/spec_augment/cond:147"
  attr {
    key: "T"
    value {
      type: DT_VARIANT
    }
  }
}
node {
  name: "speech_features/spec_augment/cond/Identity_148"
  op: "Identity"
  input: "speech_features/spec_augment/cond:148"
  attr {
    key: "T"
    value {
      type: DT_VARIANT
    }
  }
}
node {
  name: "speech_features/spec_augment/cond/Identity_149"
  op: "Identity"
  input: "speech_features/spec_augment/cond:149"
  attr {
    key: "T"
    value {
      type: DT_VARIANT
    }
  }
}
node {
  name: "speech_features/spec_augment/cond/Identity_150"
  op: "Identity"
  input: "speech_features/spec_augment/cond:150"
  attr {
    key: "T"
    value {
      type: DT_VARIANT
    }
  }
}
node {
  name: "speech_features/spec_augment/cond/Identity_151"
  op: "Identity"
  input: "speech_features/spec_augment/cond:151"
  attr {
    key: "T"
    value {
      type: DT_VARIANT
    }
  }
}
node {
  name: "speech_features/spec_augment/cond/Identity_152"
  op: "Identity"
  input: "speech_features/spec_augment/cond:152"
  attr {
    key: "T"
    value {
      type: DT_VARIANT
    }
  }
}
node {
  name: "speech_features/spec_augment/cond/Identity_153"
  op: "Identity"
  input: "speech_features/spec_augment/cond:153"
  attr {
    key: "T"
    value {
      type: DT_VARIANT
    }
  }
}
node {
  name: "speech_features/spec_augment/cond/Identity_154"
  op: "Identity"
  input: "speech_features/spec_augment/cond:154"
  attr {
    key: "T"
    value {
      type: DT_VARIANT
    }
  }
}
node {
  name: "speech_features/spec_augment/cond/Identity_155"
  op: "Identity"
  input: "speech_features/spec_augment/cond:155"
  attr {
    key: "T"
    value {
      type: DT_VARIANT
    }
  }
}
node {
  name: "speech_features/spec_augment/cond/Identity_156"
  op: "Identity"
  input: "speech_features/spec_augment/cond:156"
  attr {
    key: "T"
    value {
      type: DT_VARIANT
    }
  }
}
node {
  name: "speech_features/spec_augment/cond/Identity_157"
  op: "Identity"
  input: "speech_features/spec_augment/cond:157"
  attr {
    key: "T"
    value {
      type: DT_VARIANT
    }
  }
}
node {
  name: "speech_features/spec_augment/cond/Identity_158"
  op: "Identity"
  input: "speech_features/spec_augment/cond:158"
  attr {
    key: "T"
    value {
      type: DT_VARIANT
    }
  }
}
node {
  name: "speech_features/spec_augment/cond/Identity_159"
  op: "Identity"
  input: "speech_features/spec_augment/cond:159"
  attr {
    key: "T"
    value {
      type: DT_VARIANT
    }
  }
}
node {
  name: "speech_features/spec_augment/cond/Identity_160"
  op: "Identity"
  input: "speech_features/spec_augment/cond:160"
  attr {
    key: "T"
    value {
      type: DT_VARIANT
    }
  }
}
node {
  name: "speech_features/spec_augment/cond/Identity_161"
  op: "Identity"
  input: "speech_features/spec_augment/cond:161"
  attr {
    key: "T"
    value {
      type: DT_VARIANT
    }
  }
}
node {
  name: "speech_features/spec_augment/cond/Identity_162"
  op: "Identity"
  input: "speech_features/spec_augment/cond:162"
  attr {
    key: "T"
    value {
      type: DT_VARIANT
    }
  }
}
node {
  name: "speech_features/spec_augment/cond/Identity_163"
  op: "Identity"
  input: "speech_features/spec_augment/cond:163"
  attr {
    key: "T"
    value {
      type: DT_VARIANT
    }
  }
}
node {
  name: "speech_features/spec_augment/cond/Identity_164"
  op: "Identity"
  input: "speech_features/spec_augment/cond:164"
  attr {
    key: "T"
    value {
      type: DT_VARIANT
    }
  }
}
node {
  name: "speech_features/spec_augment/cond/Identity_165"
  op: "Identity"
  input: "speech_features/spec_augment/cond:165"
  attr {
    key: "T"
    value {
      type: DT_VARIANT
    }
  }
}
node {
  name: "speech_features/spec_augment/cond/Identity_166"
  op: "Identity"
  input: "speech_features/spec_augment/cond:166"
  attr {
    key: "T"
    value {
      type: DT_VARIANT
    }
  }
}
node {
  name: "speech_features/spec_augment/cond/Identity_167"
  op: "Identity"
  input: "speech_features/spec_augment/cond:167"
  attr {
    key: "T"
    value {
      type: DT_VARIANT
    }
  }
}
node {
  name: "speech_features/spec_augment/cond/Identity_168"
  op: "Identity"
  input: "speech_features/spec_augment/cond:168"
  attr {
    key: "T"
    value {
      type: DT_VARIANT
    }
  }
}
node {
  name: "speech_features/spec_augment/cond/Identity_169"
  op: "Identity"
  input: "speech_features/spec_augment/cond:169"
  attr {
    key: "T"
    value {
      type: DT_VARIANT
    }
  }
}
node {
  name: "speech_features/spec_augment/cond/Identity_170"
  op: "Identity"
  input: "speech_features/spec_augment/cond:170"
  attr {
    key: "T"
    value {
      type: DT_VARIANT
    }
  }
}
node {
  name: "speech_features/spec_augment/cond/Identity_171"
  op: "Identity"
  input: "speech_features/spec_augment/cond:171"
  attr {
    key: "T"
    value {
      type: DT_VARIANT
    }
  }
}
node {
  name: "speech_features/spec_augment/cond/Identity_172"
  op: "Identity"
  input: "speech_features/spec_augment/cond:172"
  attr {
    key: "T"
    value {
      type: DT_VARIANT
    }
  }
}
node {
  name: "speech_features/spec_augment/cond/Identity_173"
  op: "Identity"
  input: "speech_features/spec_augment/cond:173"
  attr {
    key: "T"
    value {
      type: DT_VARIANT
    }
  }
}
node {
  name: "speech_features/spec_augment/cond/Identity_174"
  op: "Identity"
  input: "speech_features/spec_augment/cond:174"
  attr {
    key: "T"
    value {
      type: DT_VARIANT
    }
  }
}
node {
  name: "speech_features/spec_augment/cond/Identity_175"
  op: "Identity"
  input: "speech_features/spec_augment/cond:175"
  attr {
    key: "T"
    value {
      type: DT_VARIANT
    }
  }
}
node {
  name: "speech_features/spec_augment/cond/Identity_176"
  op: "Identity"
  input: "speech_features/spec_augment/cond:176"
  attr {
    key: "T"
    value {
      type: DT_VARIANT
    }
  }
}
node {
  name: "speech_features/spec_augment/cond/Identity_177"
  op: "Identity"
  input: "speech_features/spec_augment/cond:177"
  attr {
    key: "T"
    value {
      type: DT_VARIANT
    }
  }
}
node {
  name: "speech_features/spec_augment/cond/Identity_178"
  op: "Identity"
  input: "speech_features/spec_augment/cond:178"
  attr {
    key: "T"
    value {
      type: DT_VARIANT
    }
  }
}
node {
  name: "speech_features/spec_augment/cond/Identity_179"
  op: "Identity"
  input: "speech_features/spec_augment/cond:179"
  attr {
    key: "T"
    value {
      type: DT_VARIANT
    }
  }
}
node {
  name: "speech_features/lambda_6/lambda_6/Identity"
  op: "Identity"
  input: "speech_features/spec_augment/cond/Identity"
  attr {
    key: "T"
    value {
      type: DT_FLOAT
    }
  }
}
node {
  name: "ExpandDims/dim"
  op: "Const"
  attr {
    key: "dtype"
    value {
      type: DT_INT32
    }
  }
  attr {
    key: "value"
    value {
      tensor {
        dtype: DT_INT32
        tensor_shape {
        }
        int_val: 2
      }
    }
  }
}
node {
  name: "ExpandDims"
  op: "ExpandDims"
  input: "speech_features/lambda_6/lambda_6/Identity"
  input: "ExpandDims/dim"
  attr {
    key: "T"
    value {
      type: DT_FLOAT
    }
  }
  attr {
    key: "Tdim"
    value {
      type: DT_INT32
    }
  }
}
node {
  name: "group_deps"
  op: "NoOp"
  input: "^ExpandDims/dim"
}
node {
  name: "stream/Pad/paddings"
  op: "Const"
  attr {
    key: "dtype"
    value {
      type: DT_INT32
    }
  }
  attr {
    key: "value"
    value {
      tensor {
        dtype: DT_INT32
        tensor_shape {
          dim {
            size: 4
          }
          dim {
            size: 2
          }
        }
        tensor_content: "…"
      }
    }
  }
}
node {
  name: "stream/Pad"
  op: "Pad"
  input: "ExpandDims"
  input: "stream/Pad/paddings"
  attr {
    key: "T"
    value {
      type: DT_FLOAT
    }
  }
  attr {
    key: "Tpaddings"
    value {
      type: DT_INT32
    }
  }
}
node {
  name: "stream/depthwise_conv2d/depthwise_kernel/Initializer/random_uniform/shape"
  op: "Const"
  attr {
    key: "_class"
    value {
      list {
        s: "loc:@stream/depthwise_conv2d/depthwise_kernel"
      }
    }
  }
  attr {
    key: "dtype"
    value {
      type: DT_INT32
    }
  }
  attr {
    key: "value"
    value {
      tensor {
        dtype: DT_INT32
        tensor_shape {
          dim {
            size: 4
          }
        }
        tensor_content: "\013\000\000\000\001\000\000\000(\000\000\000\001\000\000\000"
      }
    }
  }
}
node {
  name: "stream/depthwise_conv2d/depthwise_kernel/Initializer/random_uniform/min"
  op: "Const"
  attr {
    key: "_class"
    value {
      list {
        s: "loc:@stream/depthwise_conv2d/depthwise_kernel"
      }
    }
  }
  attr {
    key: "dtype"
    value {
      type: DT_FLOAT
    }
  }
  attr {
    key: "value"
    value {
      tensor {
…
            }
          }
        }
      }
    }
    node_def {
      name: "OptionalFromValue_3"
      op: "OptionalFromValue"
      input: "FusedBatchNormV3/ReadVariableOp_1:value:0"
      attr {
        key: "Toutput_types"
        value {
          list {
            type: DT_FLOAT
          }
        }
      }
      experimental_type {
        type_id: TFT_PRODUCT
        args {
          type_id: TFT_OPTIONAL
          args {
            type_id: TFT_PRODUCT
            args {
              type_id: TFT_TENSOR
              args {
                type_id: TFT_FLOAT
              }
            }
          }
        }
      }
    }
    node_def {
      name: "OptionalFromValue_4"
      op: "OptionalFromValue"
      input: "FusedBatchNormV3:reserve_space_1:0"
      attr {
        key: "Toutput_types"
        value {
          list {
            type: DT_FLOAT
          }
        }
      }
      experimental_type {
        type_id: TFT_PRODUCT
        args {
          type_id: TFT_OPTIONAL
          args {
            type_id: TFT_PRODUCT
            args {
              type_id: TFT_TENSOR
              args {
                type_id: TFT_FLOAT
              }
            }
          }
        }
      }
    }
    node_def {
      name: "OptionalFromValue_5"
      op: "OptionalFromValue"
      input: "FusedBatchNormV3:reserve_space_2:0"
      attr {
        key: "Toutput_types"
        value {
          list {
            type: DT_FLOAT
          }
        }
      }
      experimental_type {
        type_id: TFT_PRODUCT
        args {
          type_id: TFT_OPTIONAL
          args {
            type_id: TFT_PRODUCT
            args {
              type_id: TFT_TENSOR
              args {
                type_id: TFT_FLOAT
              }
            }
          }
        }
      }
    }
    node_def {
      name: "OptionalFromValue_6"
      op: "OptionalFromValue"
      input: "FusedBatchNormV3:reserve_space_3:0"
      attr {
        key: "Toutput_types"
        value {
          list {
            type: DT_FLOAT
          }
        }
      }
      experimental_type {
        type_id: TFT_PRODUCT
        args {
          type_id: TFT_OPTIONAL
          args {
            type_id: TFT_PRODUCT
            args {
              type_id: TFT_TENSOR
              args {
                type_id: TFT_FLOAT
              }
            }
          }
        }
      }
    }
    ret {
      key: "fusedbatchnormv3"
      value: "FusedBatchNormV3:y:0"
    }
    ret {
      key: "fusedbatchnormv3_0"
      value: "FusedBatchNormV3:batch_mean:0"
    }
    ret {
      key: "fusedbatchnormv3_1"
      value: "FusedBatchNormV3:batch_variance:0"
    }
    ret {
      key: "optionalfromvalue"
      value: "OptionalFromValue:optional:0"
    }
    ret {
      key: "optionalfromvalue_1"
      value: "OptionalFromValue_1:optional:0"
    }
    ret {
      key: "optionalfromvalue_2"
      value: "OptionalFromValue_2:optional:0"
    }
    ret {
      key: "optionalfromvalue_3"
      value: "OptionalFromValue_3:optional:0"
    }
    ret {
      key: "optionalfromvalue_4"
      value: "OptionalFromValue_4:optional:0"
    }
    ret {
      key: "optionalfromvalue_5"
      value: "OptionalFromValue_5:optional:0"
    }
    ret {
      key: "optionalfromvalue_6"
      value: "OptionalFromValue_6:optional:0"
    }
    arg_attr {
      key: 4
      value {
        attr {
          key: "_output_shapes"
          value {
            list {
              shape {
                dim {
                  size: 1
                }
                dim {
                  size: 100
                }
                dim {
                  size: 1
                }
                dim {
                  size: 128
                }
              }
            }
          }
        }
      }
    }
  }
  function {
    signature {
      name: "batch_normalization_5_cond_1_false_1975"
      output_arg {
        name: "const"
        type: DT_FLOAT
      }
    }
    node_def {
      name: "Const"
      op: "Const"
      attr {
        key: "dtype"
        value {
          type: DT_FLOAT
        }
      }
      attr {
        key: "value"
        value {
          tensor {
            dtype: DT_FLOAT
            tensor_shape {
            }
            float_val: 1.0
          }
        }
      }
    }
    ret {
      key: "const"
      value: "Const:output:0"
    }
  }
  function {
    signature {
      name: "batch_normalization_6_cond_1_true_2090"
      output_arg {
        name: "const"
        type: DT_FLOAT
      }
    }
    node_def {
      name: "Const"
      op: "Const"
      attr {
        key: "dtype"
        value {
          type: DT_FLOAT
        }
      }
      attr {
        key: "value"
        value {
          tensor {
            dtype: DT_FLOAT
            tensor_shape {
            }
            float_val: 0.9900000095367432
          }
        }
      }
    }
    ret {
      key: "const"
      value: "Const:output:0"
    }
  }
  function {
    signature {
      name: "batch_normalization_5_cond_1_true_1974"
      output_arg {
        name: "const"
        type: DT_FLOAT
      }
    }
    node_def {
      name: "Const"
      op: "Const"
      attr {
        key: "dtype"
        value {
          type: DT_FLOAT
        }
      }
      attr {
        key: "value"
        value {
          tensor {
            dtype: DT_FLOAT
            tensor_shape {
            }
            float_val: 0.9900000095367432
          }
        }
      }
    }
    ret {
      key: "const"
      value: "Const:output:0"
    }
  }
  function {
    signature {
      name: "batch_normalization_6_cond_false_2023"
      input_arg {
        name: "readvariableop_batch_normalization_6_gamma"
        type: DT_RESOURCE
      }
      input_arg {
        name: "readvariableop_1_batch_normalization_6_beta"
        type: DT_RESOURCE
      }
      input_arg {
        name: "fusedbatchnormv3_readvariableop_batch_normalization_6_moving_mean"
        type: DT_RESOURCE
      }
      input_arg {
        name: "fusedbatchnormv3_readvariableop_1_batch_normalization_6_moving_variance"
        type: DT_RESOURCE
      }
      input_arg {
        name: "fusedbatchnormv3_conv2d_6_conv2d"
        type: DT_FLOAT
      }
      output_arg {
        name: "fusedbatchnormv3"
        type: DT_FLOAT
      }
      output_arg {
        name: "fusedbatchnormv3_0"
        type: DT_FLOAT
      }
      output_arg {
        name: "fusedbatchnormv3_1"
        type: DT_FLOAT
      }
      output_arg {
        name: "optionalfromvalue"
        type: DT_VARIANT
      }
      output_arg {
        name: "optionalfromvalue_1"
        type: DT_VARIANT
      }
      output_arg {
        name: "optionalfromvalue_2"
        type: DT_VARIANT
      }
      output_arg {
        name: "optionalfromvalue_3"
        type: DT_VARIANT
      }
      output_arg {
        name: "optionalfromvalue_4"
        type: DT_VARIANT
      }
      output_arg {
        name: "optionalfromvalue_5"
        type: DT_VARIANT
      }
      output_arg {
        name: "optionalfromvalue_6"
        type: DT_VARIANT
      }
      is_stateful: true
    }
    node_def {
      name: "ReadVariableOp"
      op: "ReadVariableOp"
      input: "readvariableop_batch_normalization_6_gamma"
      attr {
        key: "dtype"
        value {
          type: DT_FLOAT
        }
      }
    }
    node_def {
      name: "ReadVariableOp_1"
      op: "ReadVariableOp"
      input: "readvariableop_1_batch_normalization_6_beta"
      attr {
        key: "dtype"
        value {
          type: DT_FLOAT
        }
      }
    }
    node_def {
      name: "FusedBatchNormV3/ReadVariableOp"
      op: "ReadVariableOp"
      input: "fusedbatchnormv3_readvariableop_batch_normalization_6_moving_mean"
      attr {
        key: "dtype"
        value {
          type: DT_FLOAT
        }
      }
    }
    node_def {
      name: "FusedBatchNormV3/ReadVariableOp_1"
      op: "ReadVariableOp"
      input: "fusedbatchnormv3_readvariableop_1_batch_normalization_6_moving_variance"
      attr {
        key: "dtype"
        value {
          type: DT_FLOAT
        }
      }
    }
    node_def {
      name: "FusedBatchNormV3"
      op: "FusedBatchNormV3"
      input: "fusedbatchnormv3_conv2d_6_conv2d"
      input: "ReadVariableOp:value:0"
      input: "ReadVariableOp_1:value:0"
      input: "FusedBatchNormV3/ReadVariableOp:value:0"
      input: "FusedBatchNormV3/ReadVariableOp_1:value:0"
      attr {
        key: "T"
        value {
          type: DT_FLOAT
        }
      }
      attr {
        key: "U"
        value {
          type: DT_FLOAT
        }
      }
      attr {
        key: "data_format"
        value {
          s: "NHWC"
        }
      }
      attr {
        key: "epsilon"
        value {
          f: 0.0010000000474974513
        }
      }
      attr {
        key: "exponential_avg_factor"
        value {
          f: 1.0
        }
      }
      attr {
        key: "is_training"
        value {
          b: false
        }
      }
    }
    node_def {
      name: "OptionalFromValue"
      op: "OptionalFromValue"
      input: "ReadVariableOp:value:0"
      attr {
        key: "Toutput_types"
        value {
          list {
            type: DT_FLOAT
          }
        }
      }
      experimental_type {
        type_id: TFT_PRODUCT
        args {
          type_id: TFT_OPTIONAL
          args {
            type_id: TFT_PRODUCT
            args {
              type_id: TFT_TENSOR
              args {
                type_id: TFT_FLOAT
              }
            }
          }
        }
      }
    }
    node_def {
      name: "OptionalFromValue_1"
      op: "OptionalFromValue"
      input: "ReadVariableOp_1:value:0"
      attr {
        key: "Toutput_types"
        value {
          list {
            type: DT_FLOAT
          }
        }
      }
      experimental_type {
        type_id: TFT_PRODUCT
        args {
          type_id: TFT_OPTIONAL
          args {
            type_id: TFT_PRODUCT
            args {
              type_id: TFT_TENSOR
              args {
                type_id: TFT_FLOAT
              }
            }
          }
        }
      }
    }
    node_def {
      name: "OptionalFromValue_2"
      op: "OptionalFromValue"
      input: "FusedBatchNormV3/ReadVariableOp:value:0"
      attr {
        key: "Toutput_types"
        value {
          list {
            type: DT_FLOAT
          }
        }
      }
      experimental_type {
        type_id: TFT_PRODUCT
        args {
          type_id: TFT_OPTIONAL
          args {
            type_id: TFT_PRODUCT
            args {
              type_id: TFT_TENSOR
              args {
                type_id: TFT_FLOAT
              }
            }
          }
        }
      }
    }
    node_def {
      name: "OptionalFromValue_3"
      op: "OptionalFromValue"
      input: "FusedBatchNormV3/ReadVariableOp_1:value:0"
      attr {
        key: "Toutput_types"
        value {
          list {
            type: DT_FLOAT
          }
        }
      }
      experimental_type {
        type_id: TFT_PRODUCT
        args {
          type_id: TFT_OPTIONAL
          args {
            type_id: TFT_PRODUCT
            args {
              type_id: TFT_TENSOR
              args {
                type_id: TFT_FLOAT
              }
            }
          }
        }
      }
    }
    node_def {
      name: "OptionalFromValue_4"
      op: "OptionalFromValue"
      input: "FusedBatchNormV3:reserve_space_1:0"
      attr {
        key: "Toutput_types"
        value {
          list {
            type: DT_FLOAT
          }
        }
      }
      experimental_type {
        type_id: TFT_PRODUCT
        args {
          type_id: TFT_OPTIONAL
          args {
            type_id: TFT_PRODUCT
            args {
              type_id: TFT_TENSOR
              args {
                type_id: TFT_FLOAT
              }
            }
          }
        }
      }
    }
    node_def {
      name: "OptionalFromValue_5"
      op: "OptionalFromValue"
      input: "FusedBatchNormV3:reserve_space_2:0"
      attr {
        key: "Toutput_types"
        value {
          list {
            type: DT_FLOAT
          }
        }
      }
      experimental_type {
        type_id: TFT_PRODUCT
        args {
          type_id: TFT_OPTIONAL
          args {
            type_id: TFT_PRODUCT
            args {
              type_id: TFT_TENSOR
              args {
                type_id: TFT_FLOAT
              }
            }
          }
        }
      }
    }
    node_def {
      name: "OptionalFromValue_6"
      op: "OptionalFromValue"
      input: "FusedBatchNormV3:reserve_space_3:0"
      attr {
        key: "Toutput_types"
        value {
          list {
            type: DT_FLOAT
          }
        }
      }
      experimental_type {
        type_id: TFT_PRODUCT
        args {
          type_id: TFT_OPTIONAL
          args {
            type_id: TFT_PRODUCT
            args {
              type_id: TFT_TENSOR
              args {
                type_id: TFT_FLOAT
              }
            }
          }
        }
      }
    }
    ret {
      key: "fusedbatchnormv3"
      value: "FusedBatchNormV3:y:0"
    }
    ret {
      key: "fusedbatchnormv3_0"
      value: "FusedBatchNormV3:batch_mean:0"
    }
    ret {
      key: "fusedbatchnormv3_1"
      value: "FusedBatchNormV3:batch_variance:0"
    }
    ret {
      key: "optionalfromvalue"
      value: "OptionalFromValue:optional:0"
    }
    ret {
      key: "optionalfromvalue_1"
      value: "OptionalFromValue_1:optional:0"
    }
    ret {
      key: "optionalfromvalue_2"
      value: "OptionalFromValue_2:optional:0"
    }
    ret {
      key: "optionalfromvalue_3"
      value: "OptionalFromValue_3:optional:0"
    }
    ret {
      key: "optionalfromvalue_4"
      value: "OptionalFromValue_4:optional:0"
    }
    ret {
      key: "optionalfromvalue_5"
      value: "OptionalFromValue_5:optional:0"
    }
    ret {
      key: "optionalfromvalue_6"
      value: "OptionalFromValue_6:optional:0"
    }
    arg_attr {
      key: 4
      value {
        attr {
          key: "_output_shapes"
          value {
            list {
              shape {
                dim {
                  size: 1
                }
                dim {
                  size: 100
                }
                dim {
                  size: 1
                }
                dim {
                  size: 64
                }
              }
            }
          }
        }
      }
    }
  }
  function {
    signature {
      name: "dropout_4_cond_false_2265"
      input_arg {
        name: "identity_activation_4_relu"
        type: DT_FLOAT
      }
      output_arg {
        name: "identity"
        type: DT_FLOAT
      }
    }
    node_def {
      name: "Identity"
      op: "Identity"
      input: "identity_activation_4_relu"
      attr {
        key: "T"
        value {
          type: DT_FLOAT
        }
      }
    }
    ret {
      key: "identity"
      value: "Identity:output:0"
    }
    arg_attr {
      value {
        attr {
          key: "_output_shapes"
          value {
            list {
              shape {
                dim {
                  size: 1
                }
                dim {
                  size: 100
                }
                dim {
                  size: 1
                }
                dim {
                  size: 128
                }
              }
            }
          }
        }
      }
    }
  }
  function {
    signature {
      name: "batch_normalization_5_cond_false_1907"
      input_arg {
        name: "readvariableop_batch_normalization_5_gamma"
        type: DT_RESOURCE
      }
      input_arg {
        name: "readvariableop_1_batch_normalization_5_beta"
        type: DT_RESOURCE
      }
      input_arg {
        name: "fusedbatchnormv3_readvariableop_batch_normalization_5_moving_mean"
        type: DT_RESOURCE
      }
      input_arg {
        name: "fusedbatchnormv3_readvariableop_1_batch_normalization_5_moving_variance"
        type: DT_RESOURCE
      }
      input_arg {
        name: "fusedbatchnormv3_conv2d_5_conv2d"
        type: DT_FLOAT
      }
      output_arg {
        name: "fusedbatchnormv3"
        type: DT_FLOAT
      }
      output_arg {
        name: "fusedbatchnormv3_0"
        type: DT_FLOAT
      }
      output_arg {
        name: "fusedbatchnormv3_1"
        type: DT_FLOAT
      }
      output_arg {
        name: "optionalfromvalue"
        type: DT_VARIANT
      }
      output_arg {
        name: "optionalfromvalue_1"
        type: DT_VARIANT
      }
      output_arg {
        name: "optionalfromvalue_2"
        type: DT_VARIANT
      }
      output_arg {
        name: "optionalfromvalue_3"
        type: DT_VARIANT
      }
      output_arg {
        name: "optionalfromvalue_4"
        type: DT_VARIANT
      }
      output_arg {
        name: "optionalfromvalue_5"
        type: DT_VARIANT
      }
      output_arg {
        name: "optionalfromvalue_6"
        type: DT_VARIANT
      }
      is_stateful: true
    }
    node_def {
      name: "ReadVariableOp"
      op: "ReadVariableOp"
      input: "readvariableop_batch_normalization_5_gamma"
      attr {
        key: "dtype"
        value {
          type: DT_FLOAT
        }
      }
    }
    node_def {
      name: "ReadVariableOp_1"
      op: "ReadVariableOp"
      input: "readvariableop_1_batch_normalization_5_beta"
      attr {
        key: "dtype"
        value {
          type: DT_FLOAT
        }
      }
    }
    node_def {
      name: "FusedBatchNormV3/ReadVariableOp"
      op: "ReadVariableOp"
      input: "fusedbatchnormv3_readvariableop_batch_normalization_5_moving_mean"
      attr {
        key: "dtype"
        value {
          type: DT_FLOAT
        }
      }
    }
    node_def {
      name: "FusedBatchNormV3/ReadVariableOp_1"
      op: "ReadVariableOp"
      input: "fusedbatchnormv3_readvariableop_1_batch_normalization_5_moving_variance"
      attr {
        key: "dtype"
        value {
          type: DT_FLOAT
        }
      }
    }
    node_def {
      name: "FusedBatchNormV3"
      op: "FusedBatchNormV3"
      input: "fusedbatchnormv3_conv2d_5_conv2d"
      input: "ReadVariableOp:value:0"
      input: "ReadVariableOp_1:value:0"
      input: "FusedBatchNormV3/ReadVariableOp:value:0"
      input: "FusedBatchNormV3/ReadVariableOp_1:value:0"
      attr {
        key: "T"
        value {
          type: DT_FLOAT
        }
      }
      attr {
        key: "U"
        value {
          type: DT_FLOAT
        }
      }
      attr {
        key: "data_format"
        value {
          s: "NHWC"
        }
      }
      attr {
        key: "epsilon"
        value {
          f: 0.0010000000474974513
        }
      }
      attr {
        key: "exponential_avg_factor"
        value {
          f: 1.0
        }
      }
      attr {
        key: "is_training"
        value {
          b: false
        }
      }
    }
    node_def {
      name: "OptionalFromValue"
      op: "OptionalFromValue"
      input: "ReadVariableOp:value:0"
      attr {
        key: "Toutput_types"
        value {
          list {
            type: DT_FLOAT
          }
        }
      }
      experimental_type {
        type_id: TFT_PRODUCT
        args {
          type_id: TFT_OPTIONAL
          args {
            type_id: TFT_PRODUCT
            args {
              type_id: TFT_TENSOR
              args {
                type_id: TFT_FLOAT
              }
            }
          }
        }
      }
    }
    node_def {
      name: "OptionalFromValue_1"
      op: "OptionalFromValue"
      input: "ReadVariableOp_1:value:0"
      attr {
        key: "Toutput_types"
        value {
          list {
            type: DT_FLOAT
          }
        }
      }
      experimental_type {
        type_id: TFT_PRODUCT
        args {
          type_id: TFT_OPTIONAL
          args {
            type_id: TFT_PRODUCT
            args {
              type_id: TFT_TENSOR
              args {
                type_id: TFT_FLOAT
              }
            }
          }
        }
      }
    }
    node_def {
      name: "OptionalFromValue_2"
      op: "OptionalFromValue"
      input: "FusedBatchNormV3/ReadVariableOp:value:0"
      attr {
        key: "Toutput_types"
        value {
          list {
            type: DT_FLOAT
          }
        }
      }
      experimental_type {
        type_id: TFT_PRODUCT
        args {
          type_id: TFT_OPTIONAL
          args {
            type_id: TFT_PRODUCT
            args {
              type_id: TFT_TENSOR
              args {
                type_id: TFT_FLOAT
              }
            }
          }
        }
      }
    }
    node_def {
      name: "OptionalFromValue_3"
      op: "OptionalFromValue"
      input: "FusedBatchNormV3/ReadVariableOp_1:value:0"
      attr {
        key: "Toutput_types"
        value {
          list {
            type: DT_FLOAT
          }
        }
      }
      experimental_type {
        type_id: TFT_PRODUCT
        args {
          type_id: TFT_OPTIONAL
          args {
            type_id: TFT_PRODUCT
            args {
              type_id: TFT_TENSOR
              args {
                type_id: TFT_FLOAT
              }
            }
          }
        }
      }
    }
    node_def {
      name: "OptionalFromValue_4"
      op: "OptionalFromValue"
      input: "FusedBatchNormV3:reserve_space_1:0"
      attr {
        key: "Toutput_types"
        value {
          list {
            type: DT_FLOAT
          }
        }
      }
      experimental_type {
        type_id: TFT_PRODUCT
        args {
          type_id: TFT_OPTIONAL
          args {
            type_id: TFT_PRODUCT
            args {
              type_id: TFT_TENSOR
              args {
                type_id: TFT_FLOAT
              }
            }
          }
        }
      }
    }
    node_def {
      name: "OptionalFromValue_5"
      op: "OptionalFromValue"
      input: "FusedBatchNormV3:reserve_space_2:0"
      attr {
        key: "Toutput_types"
        value {
          list {
            type: DT_FLOAT
          }
        }
      }
      experimental_type {
        type_id: TFT_PRODUCT
        args {
          type_id: TFT_OPTIONAL
          args {
            type_id: TFT_PRODUCT
            args {
              type_id: TFT_TENSOR
              args {
                type_id: TFT_FLOAT
              }
            }
          }
        }
      }
    }
    node_def {
      name: "OptionalFromValue_6"
      op: "OptionalFromValue"
      input: "FusedBatchNormV3:reserve_space_3:0"
      attr {
        key: "Toutput_types"
        value {
          list {
            type: DT_FLOAT
          }
        }
      }
      experimental_type {
        type_id: TFT_PRODUCT
        args {
          type_id: TFT_OPTIONAL
          args {
            type_id: TFT_PRODUCT
            args {
              type_id: TFT_TENSOR
              args {
                type_id: TFT_FLOAT
              }
            }
          }
        }
      }
    }
    ret {
      key: "fusedbatchnormv3"
      value: "FusedBatchNormV3:y:0"
    }
    ret {
      key: "fusedbatchnormv3_0"
      value: "FusedBatchNormV3:batch_mean:0"
    }
    ret {
      key: "fusedbatchnormv3_1"
      value: "FusedBatchNormV3:batch_variance:0"
    }
    ret {
      key: "optionalfromvalue"
      value: "OptionalFromValue:optional:0"
    }
    ret {
      key: "optionalfromvalue_1"
      value: "OptionalFromValue_1:optional:0"
    }
    ret {
      key: "optionalfromvalue_2"
      value: "OptionalFromValue_2:optional:0"
    }
    ret {
      key: "optionalfromvalue_3"
      value: "OptionalFromValue_3:optional:0"
    }
    ret {
      key: "optionalfromvalue_4"
      value: "OptionalFromValue_4:optional:0"
    }
    ret {
      key: "optionalfromvalue_5"
      value: "OptionalFromValue_5:optional:0"
    }
    ret {
      key: "optionalfromvalue_6"
      value: "OptionalFromValue_6:optional:0"
    }
    arg_attr {
      key: 4
      value {
        attr {
          key: "_output_shapes"
          value {
            list {
              shape {
                dim {
                  size: 1
                }
                dim {
                  size: 100
                }
                dim {
                  size: 1
                }
                dim {
                  size: 64
                }
              }
            }
          }
        }
      }
    }
  }
  function {
    signature {
      name: "dropout_3_cond_true_2112"
      input_arg {
        name: "activation_3_relu_0"
        type: DT_FLOAT
      }
      output_arg {
        name: "activation_3_relu"
        type: DT_FLOAT
      }
    }
    ret {
      key: "activation_3_relu"
      value: "activation_3_relu_0"
    }
    arg_attr {
      value {
        attr {
          key: "_output_shapes"
          value {
            list {
              shape {
                dim {
                  size: 1
                }
                dim {
                  size: 100
                }
                dim {
                  size: 1
                }
                dim {
                  size: 64
                }
              }
            }
          }
        }
      }
    }
  }
  function {
    signature {
      name: "batch_normalization_cond_1_true_1314"
      output_arg {
        name: "const"
        type: DT_FLOAT
      }
    }
    node_def {
      name: "Const"
      op: "Const"
      attr {
        key: "dtype"
        value {
          type: DT_FLOAT
        }
      }
      attr {
        key: "value"
        value {
          tensor {
            dtype: DT_FLOAT
            tensor_shape {
            }
            float_val: 0.9900000095367432
          }
        }
      }
    }
    ret {
      key: "const"
      value: "Const:output:0"
    }
  }
  function {
    signature {
      name: "batch_normalization_cond_false_1247"
      input_arg {
        name: "readvariableop_batch_normalization_gamma"
        type: DT_RESOURCE
      }
      input_arg {
        name: "readvariableop_1_batch_normalization_beta"
        type: DT_RESOURCE
      }
      input_arg {
        name: "fusedbatchnormv3_readvariableop_batch_normalization_moving_mean"
        type: DT_RESOURCE
      }
      input_arg {
        name: "fusedbatchnormv3_readvariableop_1_batch_normalization_moving_variance"
        type: DT_RESOURCE
      }
      input_arg {
        name: "fusedbatchnormv3_conv2d_conv2d"
        type: DT_FLOAT
      }
      output_arg {
        name: "fusedbatchnormv3"
        type: DT_FLOAT
      }
      output_arg {
        name: "fusedbatchnormv3_0"
        type: DT_FLOAT
      }
      output_arg {
        name: "fusedbatchnormv3_1"
        type: DT_FLOAT
      }
      output_arg {
        name: "optionalfromvalue"
        type: DT_VARIANT
      }
      output_arg {
        name: "optionalfromvalue_1"
        type: DT_VARIANT
      }
      output_arg {
        name: "optionalfromvalue_2"
        type: DT_VARIANT
      }
      output_arg {
        name: "optionalfromvalue_3"
        type: DT_VARIANT
      }
      output_arg {
        name: "optionalfromvalue_4"
        type: DT_VARIANT
      }
      output_arg {
        name: "optionalfromvalue_5"
        type: DT_VARIANT
      }
      output_arg {
        name: "optionalfromvalue_6"
        type: DT_VARIANT
      }
      is_stateful: true
    }
    node_def {
      name: "ReadVariableOp"
      op: "ReadVariableOp"
      input: "readvariableop_batch_normalization_gamma"
      attr {
        key: "dtype"
        value {
          type: DT_FLOAT
        }
      }
    }
    node_def {
      name: "ReadVariableOp_1"
      op: "ReadVariableOp"
      input: "readvariableop_1_batch_normalization_beta"
      attr {
        key: "dtype"
        value {
          type: DT_FLOAT
        }
      }
    }
    node_def {
      name: "FusedBatchNormV3/ReadVariableOp"
      op: "ReadVariableOp"
      input: "fusedbatchnormv3_readvariableop_batch_normalization_moving_mean"
      attr {
        key: "dtype"
        value {
          type: DT_FLOAT
        }
      }
    }
    node_def {
      name: "FusedBatchNormV3/ReadVariableOp_1"
      op: "ReadVariableOp"
      input: "fusedbatchnormv3_readvariableop_1_batch_normalization_moving_variance"
      attr {
        key: "dtype"
        value {
          type: DT_FLOAT
        }
      }
    }
    node_def {
      name: "FusedBatchNormV3"
      op: "FusedBatchNormV3"
      input: "fusedbatchnormv3_conv2d_conv2d"
      input: "ReadVariableOp:value:0"
      input: "ReadVariableOp_1:value:0"
      input: "FusedBatchNormV3/ReadVariableOp:value:0"
      input: "FusedBatchNormV3/ReadVariableOp_1:value:0"
      attr {
        key: "T"
        value {
          type: DT_FLOAT
        }
      }
      attr {
        key: "U"
        value {
          type: DT_FLOAT
        }
      }
      attr {
        key: "data_format"
        value {
          s: "NHWC"
        }
      }
      attr {
        key: "epsilon"
        value {
          f: 0.0010000000474974513
        }
      }
      attr {
        key: "exponential_avg_factor"
        value {
          f: 1.0
        }
      }
      attr {
        key: "is_training"
        value {
          b: false
        }
      }
    }
    node_def {
      name: "OptionalFromValue"
      op: "OptionalFromValue"
      input: "ReadVariableOp:value:0"
      attr {
        key: "Toutput_types"
        value {
          list {
            type: DT_FLOAT
          }
        }
      }
      experimental_type {
        type_id: TFT_PRODUCT
        args {
          type_id: TFT_OPTIONAL
          args {
            type_id: TFT_PRODUCT
            args {
              type_id: TFT_TENSOR
              args {
                type_id: TFT_FLOAT
              }
            }
          }
        }
      }
    }
    node_def {
      name: "OptionalFromValue_1"
      op: "OptionalFromValue"
      input: "ReadVariableOp_1:value:0"
      attr {
        key: "Toutput_types"
        value {
          list {
            type: DT_FLOAT
          }
        }
      }
      experimental_type {
        type_id: TFT_PRODUCT
        args {
          type_id: TFT_OPTIONAL
          args {
            type_id: TFT_PRODUCT
            args {
              type_id: TFT_TENSOR
              args {
                type_id: TFT_FLOAT
              }
            }
          }
        }
      }
    }
    node_def {
      name: "OptionalFromValue_2"
      op: "OptionalFromValue"
      input: "FusedBatchNormV3/ReadVariableOp:value:0"
      attr {
        key: "Toutput_types"
        value {
          list {
            type: DT_FLOAT
          }
        }
      }
      experimental_type {
        type_id: TFT_PRODUCT
        args {
          type_id: TFT_OPTIONAL
          args {
            type_id: TFT_PRODUCT
            args {
              type_id: TFT_TENSOR
              args {
                type_id: TFT_FLOAT
              }
            }
          }
        }
      }
    }
    node_def {
      name: "OptionalFromValue_3"
      op: "OptionalFromValue"
      input: "FusedBatchNormV3/ReadVariableOp_1:value:0"
      attr {
        key: "Toutput_types"
        value {
          list {
            type: DT_FLOAT
          }
        }
      }
      experimental_type {
        type_id: TFT_PRODUCT
        args {
          type_id: TFT_OPTIONAL
          args {
            type_id: TFT_PRODUCT
            args {
              type_id: TFT_TENSOR
              args {
                type_id: TFT_FLOAT
              }
            }
          }
        }
      }
    }
    node_def {
      name: "OptionalFromValue_4"
      op: "OptionalFromValue"
      input: "FusedBatchNormV3:reserve_space_1:0"
      attr {
        key: "Toutput_types"
        value {
          list {
            type: DT_FLOAT
          }
        }
      }
      experimental_type {
        type_id: TFT_PRODUCT
        args {
          type_id: TFT_OPTIONAL
          args {
            type_id: TFT_PRODUCT
            args {
              type_id: TFT_TENSOR
              args {
                type_id: TFT_FLOAT
              }
            }
          }
        }
      }
    }
    node_def {
      name: "OptionalFromValue_5"
      op: "OptionalFromValue"
      input: "FusedBatchNormV3:reserve_space_2:0"
      attr {
        key: "Toutput_types"
        value {
          list {
            type: DT_FLOAT
          }
        }
      }
      experimental_type {
        type_id: TFT_PRODUCT
        args {
          type_id: TFT_OPTIONAL
          args {
            type_id: TFT_PRODUCT
            args {
              type_id: TFT_TENSOR
              args {
                type_id: TFT_FLOAT
              }
            }
          }
        }
      }
    }
    node_def {
      name: "OptionalFromValue_6"
      op: "OptionalFromValue"
      input: "FusedBatchNormV3:reserve_space_3:0"
      attr {
        key: "Toutput_types"
        value {
          list {
            type: DT_FLOAT
          }
        }
      }
      experimental_type {
        type_id: TFT_PRODUCT
        args {
          type_id: TFT_OPTIONAL
          args {
            type_id: TFT_PRODUCT
            args {
              type_id: TFT_TENSOR
              args {
                type_id: TFT_FLOAT
              }
            }
          }
        }
      }
    }
    ret {
      key: "fusedbatchnormv3"
      value: "FusedBatchNormV3:y:0"
    }
    ret {
      key: "fusedbatchnormv3_0"
      value: "FusedBatchNormV3:batch_mean:0"
    }
    ret {
      key: "fusedbatchnormv3_1"
      value: "FusedBatchNormV3:batch_variance:0"
    }
    ret {
      key: "optionalfromvalue"
      value: "OptionalFromValue:optional:0"
    }
    ret {
      key: "optionalfromvalue_1"
      value: "OptionalFromValue_1:optional:0"
    }
    ret {
      key: "optionalfromvalue_2"
      value: "OptionalFromValue_2:optional:0"
    }
    ret {
      key: "optionalfromvalue_3"
      value: "OptionalFromValue_3:optional:0"
    }
    ret {
      key: "optionalfromvalue_4"
      value: "OptionalFromValue_4:optional:0"
    }
    ret {
      key: "optionalfromvalue_5"
      value: "OptionalFromValue_5:optional:0"
    }
    ret {
      key: "optionalfromvalue_6"
      value: "OptionalFromValue_6:optional:0"
    }
    arg_attr {
      key: 4
      value {
        attr {
          key: "_output_shapes"
          value {
            list {
              shape {
                dim {
                  size: 1
                }
                dim {
                  size: 100
                }
                dim {
                  size: 1
                }
                dim {
                  size: 128
                }
              }
            }
          }
        }
      }
    }
  }
  function {
    signature {
      name: "batch_normalization_7_cond_true_2175"
      input_arg {
        name: "readvariableop_batch_normalization_7_gamma"
        type: DT_RESOURCE
      }
      input_arg {
        name: "readvariableop_1_batch_normalization_7_beta"
        type: DT_RESOURCE
      }
      input_arg {
        name: "fusedbatchnormv3_readvariableop_batch_normalization_7_moving_mean"
        type: DT_RESOURCE
      }
      input_arg {
        name: "fusedbatchnormv3_readvariableop_1_batch_normalization_7_moving_variance"
        type: DT_RESOURCE
      }
      input_arg {
        name: "fusedbatchnormv3_conv2d_7_conv2d"
        type: DT_FLOAT
      }
      output_arg {
        name: "fusedbatchnormv3"
        type: DT_FLOAT
      }
      output_arg {
        name: "fusedbatchnormv3_0"
        type: DT_FLOAT
      }
      output_arg {
        name: "fusedbatchnormv3_1"
        type: DT_FLOAT
      }
      output_arg {
        name: "optionalfromvalue"
        type: DT_VARIANT
      }
      output_arg {
        name: "optionalfromvalue_1"
        type: DT_VARIANT
      }
      output_arg {
        name: "optionalfromvalue_2"
        type: DT_VARIANT
      }
      output_arg {
        name: "optionalfromvalue_3"
        type: DT_VARIANT
      }
      output_arg {
        name: "optionalfromvalue_4"
        type: DT_VARIANT
      }
      output_arg {
        name: "optionalfromvalue_5"
        type: DT_VARIANT
      }
      output_arg {
        name: "optionalfromvalue_6"
        type: DT_VARIANT
      }
      is_stateful: true
    }
    node_def {
      name: "ReadVariableOp"
      op: "ReadVariableOp"
      input: "readvariableop_batch_normalization_7_gamma"
      attr {
        key: "dtype"
        value {
          type: DT_FLOAT
        }
      }
    }
    node_def {
      name: "ReadVariableOp_1"
      op: "ReadVariableOp"
      input: "readvariableop_1_batch_normalization_7_beta"
      attr {
        key: "dtype"
        value {
          type: DT_FLOAT
        }
      }
    }
    node_def {
      name: "FusedBatchNormV3/ReadVariableOp"
      op: "ReadVariableOp"
      input: "fusedbatchnormv3_readvariableop_batch_normalization_7_moving_mean"
      attr {
        key: "dtype"
        value {
          type: DT_FLOAT
        }
      }
    }
    node_def {
      name: "FusedBatchNormV3/ReadVariableOp_1"
      op: "ReadVariableOp"
      input: "fusedbatchnormv3_readvariableop_1_batch_normalization_7_moving_variance"
      attr {
        key: "dtype"
        value {
          type: DT_FLOAT
        }
      }
    }
    node_def {
      name: "FusedBatchNormV3"
      op: "FusedBatchNormV3"
      input: "fusedbatchnormv3_conv2d_7_conv2d"
      input: "ReadVariableOp:value:0"
      input: "ReadVariableOp_1:value:0"
      input: "FusedBatchNormV3/ReadVariableOp:value:0"
      input: "FusedBatchNormV3/ReadVariableOp_1:value:0"
      attr {
        key: "T"
        value {
          type: DT_FLOAT
        }
      }
      attr {
        key: "U"
        value {
          type: DT_FLOAT
        }
      }
      attr {
        key: "data_format"
        value {
          s: "NHWC"
        }
      }
      attr {
        key: "epsilon"
        value {
          f: 0.0010000000474974513
        }
      }
      attr {
        key: "exponential_avg_factor"
        value {
          f: 1.0
        }
      }
      attr {
        key: "is_training"
        value {
          b: true
        }
      }
    }
    node_def {
      name: "OptionalFromValue"
      op: "OptionalFromValue"
      input: "ReadVariableOp:value:0"
      attr {
        key: "Toutput_types"
        value {
          list {
            type: DT_FLOAT
          }
        }
      }
      experimental_type {
        type_id: TFT_PRODUCT
        args {
          type_id: TFT_OPTIONAL
          args {
            type_id: TFT_PRODUCT
            args {
              type_id: TFT_TENSOR
              args {
                type_id: TFT_FLOAT
              }
            }
          }
        }
      }
    }
    node_def {
      name: "OptionalFromValue_1"
      op: "OptionalFromValue"
      input: "ReadVariableOp_1:value:0"
      attr {
        key: "Toutput_types"
        value {
          list {
            type: DT_FLOAT
          }
        }
      }
      experimental_type {
        type_id: TFT_PRODUCT
        args {
          type_id: TFT_OPTIONAL
          args {
            type_id: TFT_PRODUCT
            args {
              type_id: TFT_TENSOR
              args {
                type_id: TFT_FLOAT
              }
            }
          }
        }
      }
    }
    node_def {
      name: "OptionalFromValue_2"
      op: "OptionalFromValue"
      input: "FusedBatchNormV3/ReadVariableOp:value:0"
      attr {
        key: "Toutput_types"
        value {
          list {
            type: DT_FLOAT
          }
        }
      }
      experimental_type {
        type_id: TFT_PRODUCT
        args {
          type_id: TFT_OPTIONAL
          args {
            type_id: TFT_PRODUCT
            args {
              type_id: TFT_TENSOR
              args {
                type_id: TFT_FLOAT
              }
            }
          }
        }
      }
    }
    node_def {
      name: "OptionalFromValue_3"
      op: "OptionalFromValue"
      input: "FusedBatchNormV3/ReadVariableOp_1:value:0"
      attr {
        key: "Toutput_types"
        value {
          list {
            type: DT_FLOAT
          }
        }
      }
      experimental_type {
        type_id: TFT_PRODUCT
        args {
          type_id: TFT_OPTIONAL
          args {
            type_id: TFT_PRODUCT
            args {
              type_id: TFT_TENSOR
              args {
                type_id: TFT_FLOAT
              }
            }
          }
        }
      }
    }
    node_def {
      name: "OptionalFromValue_4"
      op: "OptionalFromValue"
      input: "FusedBatchNormV3:reserve_space_1:0"
      attr {
        key: "Toutput_types"
        value {
          list {
            type: DT_FLOAT
          }
        }
      }
      experimental_type {
        type_id: TFT_PRODUCT
        args {
          type_id: TFT_OPTIONAL
          args {
            type_id: TFT_PRODUCT
            args {
              type_id: TFT_TENSOR
              args {
                type_id: TFT_FLOAT
              }
            }
          }
        }
      }
    }
    node_def {
      name: "OptionalFromValue_5"
      op: "OptionalFromValue"
      input: "FusedBatchNormV3:reserve_space_2:0"
      attr {
        key: "Toutput_types"
        value {
          list {
            type: DT_FLOAT
          }
        }
      }
      experimental_type {
        type_id: TFT_PRODUCT
        args {
          type_id: TFT_OPTIONAL
          args {
            type_id: TFT_PRODUCT
            args {
              type_id: TFT_TENSOR
              args {
                type_id: TFT_FLOAT
              }
            }
          }
        }
      }
    }
    node_def {
      name: "OptionalFromValue_6"
      op: "OptionalFromValue"
      input: "FusedBatchNormV3:reserve_space_3:0"
      attr {
        key: "Toutput_types"
        value {
          list {
            type: DT_FLOAT
          }
        }
      }
      experimental_type {
        type_id: TFT_PRODUCT
        args {
          type_id: TFT_OPTIONAL
          args {
            type_id: TFT_PRODUCT
            args {
              type_id: TFT_TENSOR
              args {
                type_id: TFT_FLOAT
              }
            }
          }
        }
      }
    }
    ret {
      key: "fusedbatchnormv3"
      value: "FusedBatchNormV3:y:0"
    }
    ret {
      key: "fusedbatchnormv3_0"
      value: "FusedBatchNormV3:batch_mean:0"
    }
    ret {
      key: "fusedbatchnormv3_1"
      value: "FusedBatchNormV3:batch_variance:0"
    }
    ret {
      key: "optionalfromvalue"
      value: "OptionalFromValue:optional:0"
    }
    ret {
      key: "optionalfromvalue_1"
      value: "OptionalFromValue_1:optional:0"
    }
    ret {
      key: "optionalfromvalue_2"
      value: "OptionalFromValue_2:optional:0"
    }
    ret {
      key: "optionalfromvalue_3"
      value: "OptionalFromValue_3:optional:0"
    }
    ret {
      key: "optionalfromvalue_4"
      value: "OptionalFromValue_4:optional:0"
    }
    ret {
      key: "optionalfromvalue_5"
      value: "OptionalFromValue_5:optional:0"
    }
    ret {
      key: "optionalfromvalue_6"
      value: "OptionalFromValue_6:optional:0"
    }
    arg_attr {
      key: 4
      value {
        attr {
          key: "_output_shapes"
          value {
            list {
              shape {
                dim {
                  size: 1
                }
                dim {
                  size: 100
                }
                dim {
                  size: 1
                }
                dim {
                  size: 128
                }
              }
            }
          }
        }
      }
    }
  }
  function {
    signature {
      name: "dropout_5_cond_false_2407"
      input_arg {
        name: "identity_activation_5_relu"
        type: DT_FLOAT
      }
      output_arg {
        name: "identity"
        type: DT_FLOAT
      }
    }
    node_def {
      name: "Identity"
      op: "Identity"
      input: "identity_activation_5_relu"
      attr {
        key: "T"
        value {
          type: DT_FLOAT
        }
      }
    }
    ret {
      key: "identity"
      value: "Identity:output:0"
    }
    arg_attr {
      value {
        attr {
          key: "_output_shapes"
          value {
            list {
              shape {
                dim {
                  size: 1
                }
                dim {
                  size: 100
                }
                dim {
                  size: 1
                }
                dim {
                  size: 128
                }
              }
            }
          }
        }
      }
    }
  }
  function {
    signature {
      name: "batch_normalization_6_cond_1_false_2091"
      output_arg {
        name: "const"
        type: DT_FLOAT
      }
    }
    node_def {
      name: "Const"
      op: "Const"
      attr {
        key: "dtype"
        value {
          type: DT_FLOAT
        }
      }
      attr {
        key: "value"
        value {
          tensor {
            dtype: DT_FLOAT
            tensor_shape {
            }
            float_val: 1.0
          }
        }
      }
    }
    ret {
      key: "const"
      value: "Const:output:0"
    }
  }
  function {
    signature {
      name: "dropout_3_cond_false_2113"
      input_arg {
        name: "identity_activation_3_relu"
        type: DT_FLOAT
      }
      output_arg {
        name: "identity"
        type: DT_FLOAT
      }
    }
    node_def {
      name: "Identity"
      op: "Identity"
      input: "identity_activation_3_relu"
      attr {
        key: "T"
        value {
          type: DT_FLOAT
        }
      }
    }
    ret {
      key: "identity"
      value: "Identity:output:0"
    }
    arg_attr {
      value {
        attr {
          key: "_output_shapes"
          value {
            list {
              shape {
                dim {
                  size: 1
                }
                dim {
                  size: 100
                }
                dim {
                  size: 1
                }
                dim {
                  size: 64
                }
              }
            }
          }
        }
      }
    }
  }
  function {
    signature {
      name: "batch_normalization_7_cond_1_false_2244"
      output_arg {
        name: "const"
        type: DT_FLOAT
      }
    }
    node_def {
      name: "Const"
      op: "Const"
      attr {
        key: "dtype"
        value {
          type: DT_FLOAT
        }
      }
      attr {
        key: "value"
        value {
          tensor {
            dtype: DT_FLOAT
            tensor_shape {
            }
            float_val: 1.0
          }
        }
      }
    }
    ret {
      key: "const"
      value: "Const:output:0"
    }
  }
  function {
    signature {
      name: "batch_normalization_8_cond_1_true_2385"
      output_arg {
        name: "const"
        type: DT_FLOAT
      }
    }
    node_def {
      name: "Const"
      op: "Const"
      attr {
        key: "dtype"
        value {
          type: DT_FLOAT
        }
      }
      attr {
        key: "value"
        value {
          tensor {
            dtype: DT_FLOAT
            tensor_shape {
            }
            float_val: 0.9900000095367432
          }
        }
      }
    }
    ret {
      key: "const"
      value: "Const:output:0"
    }
  }
  function {
    signature {
      name: "batch_normalization_4_cond_1_true_1831"
      output_arg {
        name: "const"
        type: DT_FLOAT
      }
    }
    node_def {
      name: "Const"
      op: "Const"
      attr {
        key: "dtype"
        value {
          type: DT_FLOAT
        }
      }
      attr {
        key: "value"
        value {
          tensor {
            dtype: DT_FLOAT
            tensor_shape {
            }
            float_val: 0.9900000095367432
          }
        }
      }
    }
    ret {
      key: "const"
      value: "Const:output:0"
    }
  }
  function {
    signature {
      name: "dropout_5_cond_true_2406"
      input_arg {
        name: "activation_5_relu_0"
        type: DT_FLOAT
      }
      output_arg {
        name: "activation_5_relu"
        type: DT_FLOAT
      }
    }
    ret {
      key: "activation_5_relu"
      value: "activation_5_relu_0"
    }
    arg_attr {
      value {
        attr {
          key: "_output_shapes"
          value {
            list {
              shape {
                dim {
                  size: 1
                }
                dim {
                  size: 100
                }
                dim {
                  size: 1
                }
                dim {
                  size: 128
                }
              }
            }
          }
        }
      }
    }
  }
  function {
    signature {
      name: "dropout_cond_false_1336"
      input_arg {
        name: "identity_activation_relu"
        type: DT_FLOAT
      }
      output_arg {
        name: "identity"
        type: DT_FLOAT
      }
    }
    node_def {
      name: "Identity"
      op: "Identity"
      input: "identity_activation_relu"
      attr {
        key: "T"
        value {
          type: DT_FLOAT
        }
      }
    }
    ret {
      key: "identity"
      value: "Identity:output:0"
    }
    arg_attr {
      value {
        attr {
          key: "_output_shapes"
          value {
            list {
              shape {
                dim {
                  size: 1
                }
                dim {
                  size: 100
                }
                dim {
                  size: 1
                }
                dim {
                  size: 128
                }
              }
            }
          }
        }
      }
    }
  }
}
versions {
  producer: 898
  min_consumer: 12
}
